{"modelTopology": {"keras_version": "2.2.1", "backend": "tensorflow", "model_config": {"class_name": "Model", "config": {"name": "model_1", "layers": [{"name": "input_1", "class_name": "InputLayer", "config": {"batch_input_shape": [null, null, null, 3], "dtype": "float32", "sparse": false, "name": "input_1"}, "inbound_nodes": []}, {"name": "shufflenet", "class_name": "Model", "config": {"name": "shufflenet", "layers": [{"name": "input_2", "class_name": "InputLayer", "config": {"batch_input_shape": [null, 512, 512, 3], "dtype": "float32", "sparse": false, "name": "input_2"}, "inbound_nodes": []}, {"name": "conv1", "class_name": "Conv2D", "config": {"name": "conv1", "trainable": true, "filters": 24, "kernel_size": [3, 3], "strides": [2, 2], "padding": "same", "data_format": "channels_last", "dilation_rate": [1, 1], "activation": "relu", "use_bias": false, "kernel_initializer": {"class_name": "VarianceScaling", "config": {"scale": 1.0, "mode": "fan_avg", "distribution": "uniform", "seed": null}}, "bias_initializer": {"class_name": "Zeros", "config": {}}, "kernel_regularizer": null, "bias_regularizer": null, "activity_regularizer": null, "kernel_constraint": null, "bias_constraint": null}, "inbound_nodes": [[["input_2", 0, 0, {}]]]}, {"name": "maxpool1", "class_name": "MaxPooling2D", "config": {"name": "maxpool1", "trainable": true, "pool_size": [3, 3], "padding": "same", "strides": [2, 2], "data_format": "channels_last"}, "inbound_nodes": [[["conv1", 0, 0, {}]]]}, {"name": "stage2/block1/1x1conv_1", "class_name": "Conv2D", "config": {"name": "stage2/block1/1x1conv_1", "trainable": true, "filters": 116, "kernel_size": [1, 1], "strides": [1, 1], "padding": "same", "data_format": "channels_last", "dilation_rate": [1, 1], "activation": "linear", "use_bias": true, "kernel_initializer": {"class_name": "VarianceScaling", "config": {"scale": 1.0, "mode": "fan_avg", "distribution": "uniform", "seed": null}}, "bias_initializer": {"class_name": "Zeros", "config": {}}, "kernel_regularizer": null, "bias_regularizer": null, "activity_regularizer": null, "kernel_constraint": null, "bias_constraint": null}, "inbound_nodes": [[["maxpool1", 0, 0, {}]]]}, {"name": "stage2/block1/bn_1x1conv_1", "class_name": "BatchNormalization", "config": {"name": "stage2/block1/bn_1x1conv_1", "trainable": true, "axis": -1, "momentum": 0.99, "epsilon": 0.001, "center": true, "scale": true, "beta_initializer": {"class_name": "Zeros", "config": {}}, "gamma_initializer": {"class_name": "Ones", "config": {}}, "moving_mean_initializer": {"class_name": "Zeros", "config": {}}, "moving_variance_initializer": {"class_name": "Ones", "config": {}}, "beta_regularizer": null, "gamma_regularizer": null, "beta_constraint": null, "gamma_constraint": null}, "inbound_nodes": [[["stage2/block1/1x1conv_1", 0, 0, {}]]]}, {"name": "stage2/block1/relu_1x1conv_1", "class_name": "Activation", "config": {"name": "stage2/block1/relu_1x1conv_1", "trainable": true, "activation": "relu"}, "inbound_nodes": [[["stage2/block1/bn_1x1conv_1", 0, 0, {}]]]}, {"name": "stage2/block1/3x3dwconv", "class_name": "DepthwiseConv2D", "config": {"name": "stage2/block1/3x3dwconv", "trainable": true, "kernel_size": [3, 3], "strides": [2, 2], "padding": "same", "data_format": "channels_last", "dilation_rate": [1, 1], "activation": "linear", "use_bias": true, "bias_initializer": {"class_name": "Zeros", "config": {}}, "bias_regularizer": null, "activity_regularizer": null, "bias_constraint": null, "depth_multiplier": 1, "depthwise_initializer": {"class_name": "VarianceScaling", "config": {"scale": 1.0, "mode": "fan_avg", "distribution": "uniform", "seed": null}}, "depthwise_regularizer": null, "depthwise_constraint": null}, "inbound_nodes": [[["stage2/block1/relu_1x1conv_1", 0, 0, {}]]]}, {"name": "stage2/block1/3x3dwconv_2", "class_name": "DepthwiseConv2D", "config": {"name": "stage2/block1/3x3dwconv_2", "trainable": true, "kernel_size": [3, 3], "strides": [2, 2], "padding": "same", "data_format": "channels_last", "dilation_rate": [1, 1], "activation": "linear", "use_bias": true, "bias_initializer": {"class_name": "Zeros", "config": {}}, "bias_regularizer": null, "activity_regularizer": null, "bias_constraint": null, "depth_multiplier": 1, "depthwise_initializer": {"class_name": "VarianceScaling", "config": {"scale": 1.0, "mode": "fan_avg", "distribution": "uniform", "seed": null}}, "depthwise_regularizer": null, "depthwise_constraint": null}, "inbound_nodes": [[["maxpool1", 0, 0, {}]]]}, {"name": "stage2/block1/bn_3x3dwconv", "class_name": "BatchNormalization", "config": {"name": "stage2/block1/bn_3x3dwconv", "trainable": true, "axis": -1, "momentum": 0.99, "epsilon": 0.001, "center": true, "scale": true, "beta_initializer": {"class_name": "Zeros", "config": {}}, "gamma_initializer": {"class_name": "Ones", "config": {}}, "moving_mean_initializer": {"class_name": "Zeros", "config": {}}, "moving_variance_initializer": {"class_name": "Ones", "config": {}}, "beta_regularizer": null, "gamma_regularizer": null, "beta_constraint": null, "gamma_constraint": null}, "inbound_nodes": [[["stage2/block1/3x3dwconv", 0, 0, {}]]]}, {"name": "stage2/block1/bn_3x3dwconv_2", "class_name": "BatchNormalization", "config": {"name": "stage2/block1/bn_3x3dwconv_2", "trainable": true, "axis": -1, "momentum": 0.99, "epsilon": 0.001, "center": true, "scale": true, "beta_initializer": {"class_name": "Zeros", "config": {}}, "gamma_initializer": {"class_name": "Ones", "config": {}}, "moving_mean_initializer": {"class_name": "Zeros", "config": {}}, "moving_variance_initializer": {"class_name": "Ones", "config": {}}, "beta_regularizer": null, "gamma_regularizer": null, "beta_constraint": null, "gamma_constraint": null}, "inbound_nodes": [[["stage2/block1/3x3dwconv_2", 0, 0, {}]]]}, {"name": "stage2/block1/1x1conv_2", "class_name": "Conv2D", "config": {"name": "stage2/block1/1x1conv_2", "trainable": true, "filters": 116, "kernel_size": [1, 1], "strides": [1, 1], "padding": "same", "data_format": "channels_last", "dilation_rate": [1, 1], "activation": "linear", "use_bias": true, "kernel_initializer": {"class_name": "VarianceScaling", "config": {"scale": 1.0, "mode": "fan_avg", "distribution": "uniform", "seed": null}}, "bias_initializer": {"class_name": "Zeros", "config": {}}, "kernel_regularizer": null, "bias_regularizer": null, "activity_regularizer": null, "kernel_constraint": null, "bias_constraint": null}, "inbound_nodes": [[["stage2/block1/bn_3x3dwconv", 0, 0, {}]]]}, {"name": "stage2/block1/1x1_conv_3", "class_name": "Conv2D", "config": {"name": "stage2/block1/1x1_conv_3", "trainable": true, "filters": 116, "kernel_size": [1, 1], "strides": [1, 1], "padding": "same", "data_format": "channels_last", "dilation_rate": [1, 1], "activation": "linear", "use_bias": true, "kernel_initializer": {"class_name": "VarianceScaling", "config": {"scale": 1.0, "mode": "fan_avg", "distribution": "uniform", "seed": null}}, "bias_initializer": {"class_name": "Zeros", "config": {}}, "kernel_regularizer": null, "bias_regularizer": null, "activity_regularizer": null, "kernel_constraint": null, "bias_constraint": null}, "inbound_nodes": [[["stage2/block1/bn_3x3dwconv_2", 0, 0, {}]]]}, {"name": "stage2/block1/bn_1x1conv_2", "class_name": "BatchNormalization", "config": {"name": "stage2/block1/bn_1x1conv_2", "trainable": true, "axis": -1, "momentum": 0.99, "epsilon": 0.001, "center": true, "scale": true, "beta_initializer": {"class_name": "Zeros", "config": {}}, "gamma_initializer": {"class_name": "Ones", "config": {}}, "moving_mean_initializer": {"class_name": "Zeros", "config": {}}, "moving_variance_initializer": {"class_name": "Ones", "config": {}}, "beta_regularizer": null, "gamma_regularizer": null, "beta_constraint": null, "gamma_constraint": null}, "inbound_nodes": [[["stage2/block1/1x1conv_2", 0, 0, {}]]]}, {"name": "stage2/block1/bn_1x1conv_3", "class_name": "BatchNormalization", "config": {"name": "stage2/block1/bn_1x1conv_3", "trainable": true, "axis": -1, "momentum": 0.99, "epsilon": 0.001, "center": true, "scale": true, "beta_initializer": {"class_name": "Zeros", "config": {}}, "gamma_initializer": {"class_name": "Ones", "config": {}}, "moving_mean_initializer": {"class_name": "Zeros", "config": {}}, "moving_variance_initializer": {"class_name": "Ones", "config": {}}, "beta_regularizer": null, "gamma_regularizer": null, "beta_constraint": null, "gamma_constraint": null}, "inbound_nodes": [[["stage2/block1/1x1_conv_3", 0, 0, {}]]]}, {"name": "stage2/block1/relu_1x1conv_2", "class_name": "Activation", "config": {"name": "stage2/block1/relu_1x1conv_2", "trainable": true, "activation": "relu"}, "inbound_nodes": [[["stage2/block1/bn_1x1conv_2", 0, 0, {}]]]}, {"name": "stage2/block1/relu_1x1conv_3", "class_name": "Activation", "config": {"name": "stage2/block1/relu_1x1conv_3", "trainable": true, "activation": "relu"}, "inbound_nodes": [[["stage2/block1/bn_1x1conv_3", 0, 0, {}]]]}, {"name": "stage2/block1/concat_2", "class_name": "Concatenate", "config": {"name": "stage2/block1/concat_2", "trainable": true, "axis": -1}, "inbound_nodes": [[["stage2/block1/relu_1x1conv_2", 0, 0, {}], ["stage2/block1/relu_1x1conv_3", 0, 0, {}]]]}, {"name": "stage2/block1/channel_shuffle", "class_name": "Lambda", "config": {"name": "stage2/block1/channel_shuffle", "trainable": true, "function": ["4wEAAAAAAAAABQAAAAcAAABDAAAAc1oAAAB8AGoAagGDAGQBZACFAhkAXAN9AX0CfQN8A2QCGgB9\nBHQCagN8AGQGfAF8AmQCfARnBYMCfQB0AmoEfABkB4MCfQB0AmoDfABkCHwBfAJ8A2cEgwJ9AHwA\nUwApCU7pAQAAAOkCAAAA6QAAAADpBAAAAOkDAAAA6f////8pBXIDAAAAcgEAAAByAgAAAHIEAAAA\ncgUAAAByBgAAACkF2gVzaGFwZdoHYXNfbGlzdNoBS9oHcmVzaGFwZdoScGVybXV0ZV9kaW1lbnNp\nb25zKQXaAXjaBmhlaWdodNoFd2lkdGjaCGNoYW5uZWxzWhJjaGFubmVsc19wZXJfc3BsaXSpAHIQ\nAAAA+iEuLi8uLi9rZXJhcy1zaHVmZmxlbmV0VjIvdXRpbHMucHnaD2NoYW5uZWxfc2h1ZmZsZRoA\nAABzDAAAAAABGAEIARYBDAEUAQ==\n", null, null], "function_type": "lambda", "output_shape": null, "output_shape_type": "raw", "arguments": {}}, "inbound_nodes": [[["stage2/block1/concat_2", 0, 0, {}]]]}, {"name": "stage2/block2/spl/sp1_slice", "class_name": "Lambda", "config": {"name": "stage2/block2/spl/sp1_slice", "trainable": true, "function": ["4wEAAAAAAAAAAQAAAAYAAAATAAAAcyAAAAB8AGQAZACFAmQAZACFAmQAZACFAogAZACFAmYEGQBT\nACkBTqkAKQHaAXopAdoCaXByAQAAAPohLi4vLi4va2VyYXMtc2h1ZmZsZW5ldFYyL3V0aWxzLnB5\n2gg8bGFtYmRhPhcAAADzAAAAAA==\n", null, [116]], "function_type": "lambda", "output_shape": null, "output_shape_type": "raw", "arguments": {}}, "inbound_nodes": [[["stage2/block1/channel_shuffle", 0, 0, {}]]]}, {"name": "stage2/block2/1x1conv_1", "class_name": "Conv2D", "config": {"name": "stage2/block2/1x1conv_1", "trainable": true, "filters": 116, "kernel_size": [1, 1], "strides": [1, 1], "padding": "same", "data_format": "channels_last", "dilation_rate": [1, 1], "activation": "linear", "use_bias": true, "kernel_initializer": {"class_name": "VarianceScaling", "config": {"scale": 1.0, "mode": "fan_avg", "distribution": "uniform", "seed": null}}, "bias_initializer": {"class_name": "Zeros", "config": {}}, "kernel_regularizer": null, "bias_regularizer": null, "activity_regularizer": null, "kernel_constraint": null, "bias_constraint": null}, "inbound_nodes": [[["stage2/block2/spl/sp1_slice", 0, 0, {}]]]}, {"name": "stage2/block2/bn_1x1conv_1", "class_name": "BatchNormalization", "config": {"name": "stage2/block2/bn_1x1conv_1", "trainable": true, "axis": -1, "momentum": 0.99, "epsilon": 0.001, "center": true, "scale": true, "beta_initializer": {"class_name": "Zeros", "config": {}}, "gamma_initializer": {"class_name": "Ones", "config": {}}, "moving_mean_initializer": {"class_name": "Zeros", "config": {}}, "moving_variance_initializer": {"class_name": "Ones", "config": {}}, "beta_regularizer": null, "gamma_regularizer": null, "beta_constraint": null, "gamma_constraint": null}, "inbound_nodes": [[["stage2/block2/1x1conv_1", 0, 0, {}]]]}, {"name": "stage2/block2/relu_1x1conv_1", "class_name": "Activation", "config": {"name": "stage2/block2/relu_1x1conv_1", "trainable": true, "activation": "relu"}, "inbound_nodes": [[["stage2/block2/bn_1x1conv_1", 0, 0, {}]]]}, {"name": "stage2/block2/3x3dwconv", "class_name": "DepthwiseConv2D", "config": {"name": "stage2/block2/3x3dwconv", "trainable": true, "kernel_size": [3, 3], "strides": [1, 1], "padding": "same", "data_format": "channels_last", "dilation_rate": [1, 1], "activation": "linear", "use_bias": true, "bias_initializer": {"class_name": "Zeros", "config": {}}, "bias_regularizer": null, "activity_regularizer": null, "bias_constraint": null, "depth_multiplier": 1, "depthwise_initializer": {"class_name": "VarianceScaling", "config": {"scale": 1.0, "mode": "fan_avg", "distribution": "uniform", "seed": null}}, "depthwise_regularizer": null, "depthwise_constraint": null}, "inbound_nodes": [[["stage2/block2/relu_1x1conv_1", 0, 0, {}]]]}, {"name": "stage2/block2/bn_3x3dwconv", "class_name": "BatchNormalization", "config": {"name": "stage2/block2/bn_3x3dwconv", "trainable": true, "axis": -1, "momentum": 0.99, "epsilon": 0.001, "center": true, "scale": true, "beta_initializer": {"class_name": "Zeros", "config": {}}, "gamma_initializer": {"class_name": "Ones", "config": {}}, "moving_mean_initializer": {"class_name": "Zeros", "config": {}}, "moving_variance_initializer": {"class_name": "Ones", "config": {}}, "beta_regularizer": null, "gamma_regularizer": null, "beta_constraint": null, "gamma_constraint": null}, "inbound_nodes": [[["stage2/block2/3x3dwconv", 0, 0, {}]]]}, {"name": "stage2/block2/1x1conv_2", "class_name": "Conv2D", "config": {"name": "stage2/block2/1x1conv_2", "trainable": true, "filters": 116, "kernel_size": [1, 1], "strides": [1, 1], "padding": "same", "data_format": "channels_last", "dilation_rate": [1, 1], "activation": "linear", "use_bias": true, "kernel_initializer": {"class_name": "VarianceScaling", "config": {"scale": 1.0, "mode": "fan_avg", "distribution": "uniform", "seed": null}}, "bias_initializer": {"class_name": "Zeros", "config": {}}, "kernel_regularizer": null, "bias_regularizer": null, "activity_regularizer": null, "kernel_constraint": null, "bias_constraint": null}, "inbound_nodes": [[["stage2/block2/bn_3x3dwconv", 0, 0, {}]]]}, {"name": "stage2/block2/bn_1x1conv_2", "class_name": "BatchNormalization", "config": {"name": "stage2/block2/bn_1x1conv_2", "trainable": true, "axis": -1, "momentum": 0.99, "epsilon": 0.001, "center": true, "scale": true, "beta_initializer": {"class_name": "Zeros", "config": {}}, "gamma_initializer": {"class_name": "Ones", "config": {}}, "moving_mean_initializer": {"class_name": "Zeros", "config": {}}, "moving_variance_initializer": {"class_name": "Ones", "config": {}}, "beta_regularizer": null, "gamma_regularizer": null, "beta_constraint": null, "gamma_constraint": null}, "inbound_nodes": [[["stage2/block2/1x1conv_2", 0, 0, {}]]]}, {"name": "stage2/block2/relu_1x1conv_2", "class_name": "Activation", "config": {"name": "stage2/block2/relu_1x1conv_2", "trainable": true, "activation": "relu"}, "inbound_nodes": [[["stage2/block2/bn_1x1conv_2", 0, 0, {}]]]}, {"name": "stage2/block2/spl/sp0_slice", "class_name": "Lambda", "config": {"name": "stage2/block2/spl/sp0_slice", "trainable": true, "function": ["4wEAAAAAAAAAAQAAAAYAAAATAAAAcyAAAAB8AGQAZACFAmQAZACFAmQAZACFAmQBiACFAmYEGQBT\nACkCTukAAAAAqQApAdoBeikB2gJpcHICAAAA+iEuLi8uLi9rZXJhcy1zaHVmZmxlbmV0VjIvdXRp\nbHMucHnaCDxsYW1iZGE+FgAAAPMAAAAA\n", null, [116]], "function_type": "lambda", "output_shape": null, "output_shape_type": "raw", "arguments": {}}, "inbound_nodes": [[["stage2/block1/channel_shuffle", 0, 0, {}]]]}, {"name": "stage2/block2/concat_1", "class_name": "Concatenate", "config": {"name": "stage2/block2/concat_1", "trainable": true, "axis": -1}, "inbound_nodes": [[["stage2/block2/relu_1x1conv_2", 0, 0, {}], ["stage2/block2/spl/sp0_slice", 0, 0, {}]]]}, {"name": "stage2/block2/channel_shuffle", "class_name": "Lambda", "config": {"name": "stage2/block2/channel_shuffle", "trainable": true, "function": ["4wEAAAAAAAAABQAAAAcAAABDAAAAc1oAAAB8AGoAagGDAGQBZACFAhkAXAN9AX0CfQN8A2QCGgB9\nBHQCagN8AGQGfAF8AmQCfARnBYMCfQB0AmoEfABkB4MCfQB0AmoDfABkCHwBfAJ8A2cEgwJ9AHwA\nUwApCU7pAQAAAOkCAAAA6QAAAADpBAAAAOkDAAAA6f////8pBXIDAAAAcgEAAAByAgAAAHIEAAAA\ncgUAAAByBgAAACkF2gVzaGFwZdoHYXNfbGlzdNoBS9oHcmVzaGFwZdoScGVybXV0ZV9kaW1lbnNp\nb25zKQXaAXjaBmhlaWdodNoFd2lkdGjaCGNoYW5uZWxzWhJjaGFubmVsc19wZXJfc3BsaXSpAHIQ\nAAAA+iEuLi8uLi9rZXJhcy1zaHVmZmxlbmV0VjIvdXRpbHMucHnaD2NoYW5uZWxfc2h1ZmZsZRoA\nAABzDAAAAAABGAEIARYBDAEUAQ==\n", null, null], "function_type": "lambda", "output_shape": null, "output_shape_type": "raw", "arguments": {}}, "inbound_nodes": [[["stage2/block2/concat_1", 0, 0, {}]]]}, {"name": "stage2/block3/spl/sp1_slice", "class_name": "Lambda", "config": {"name": "stage2/block3/spl/sp1_slice", "trainable": true, "function": ["4wEAAAAAAAAAAQAAAAYAAAATAAAAcyAAAAB8AGQAZACFAmQAZACFAmQAZACFAogAZACFAmYEGQBT\nACkBTqkAKQHaAXopAdoCaXByAQAAAPohLi4vLi4va2VyYXMtc2h1ZmZsZW5ldFYyL3V0aWxzLnB5\n2gg8bGFtYmRhPhcAAADzAAAAAA==\n", null, [116]], "function_type": "lambda", "output_shape": null, "output_shape_type": "raw", "arguments": {}}, "inbound_nodes": [[["stage2/block2/channel_shuffle", 0, 0, {}]]]}, {"name": "stage2/block3/1x1conv_1", "class_name": "Conv2D", "config": {"name": "stage2/block3/1x1conv_1", "trainable": true, "filters": 116, "kernel_size": [1, 1], "strides": [1, 1], "padding": "same", "data_format": "channels_last", "dilation_rate": [1, 1], "activation": "linear", "use_bias": true, "kernel_initializer": {"class_name": "VarianceScaling", "config": {"scale": 1.0, "mode": "fan_avg", "distribution": "uniform", "seed": null}}, "bias_initializer": {"class_name": "Zeros", "config": {}}, "kernel_regularizer": null, "bias_regularizer": null, "activity_regularizer": null, "kernel_constraint": null, "bias_constraint": null}, "inbound_nodes": [[["stage2/block3/spl/sp1_slice", 0, 0, {}]]]}, {"name": "stage2/block3/bn_1x1conv_1", "class_name": "BatchNormalization", "config": {"name": "stage2/block3/bn_1x1conv_1", "trainable": true, "axis": -1, "momentum": 0.99, "epsilon": 0.001, "center": true, "scale": true, "beta_initializer": {"class_name": "Zeros", "config": {}}, "gamma_initializer": {"class_name": "Ones", "config": {}}, "moving_mean_initializer": {"class_name": "Zeros", "config": {}}, "moving_variance_initializer": {"class_name": "Ones", "config": {}}, "beta_regularizer": null, "gamma_regularizer": null, "beta_constraint": null, "gamma_constraint": null}, "inbound_nodes": [[["stage2/block3/1x1conv_1", 0, 0, {}]]]}, {"name": "stage2/block3/relu_1x1conv_1", "class_name": "Activation", "config": {"name": "stage2/block3/relu_1x1conv_1", "trainable": true, "activation": "relu"}, "inbound_nodes": [[["stage2/block3/bn_1x1conv_1", 0, 0, {}]]]}, {"name": "stage2/block3/3x3dwconv", "class_name": "DepthwiseConv2D", "config": {"name": "stage2/block3/3x3dwconv", "trainable": true, "kernel_size": [3, 3], "strides": [1, 1], "padding": "same", "data_format": "channels_last", "dilation_rate": [1, 1], "activation": "linear", "use_bias": true, "bias_initializer": {"class_name": "Zeros", "config": {}}, "bias_regularizer": null, "activity_regularizer": null, "bias_constraint": null, "depth_multiplier": 1, "depthwise_initializer": {"class_name": "VarianceScaling", "config": {"scale": 1.0, "mode": "fan_avg", "distribution": "uniform", "seed": null}}, "depthwise_regularizer": null, "depthwise_constraint": null}, "inbound_nodes": [[["stage2/block3/relu_1x1conv_1", 0, 0, {}]]]}, {"name": "stage2/block3/bn_3x3dwconv", "class_name": "BatchNormalization", "config": {"name": "stage2/block3/bn_3x3dwconv", "trainable": true, "axis": -1, "momentum": 0.99, "epsilon": 0.001, "center": true, "scale": true, "beta_initializer": {"class_name": "Zeros", "config": {}}, "gamma_initializer": {"class_name": "Ones", "config": {}}, "moving_mean_initializer": {"class_name": "Zeros", "config": {}}, "moving_variance_initializer": {"class_name": "Ones", "config": {}}, "beta_regularizer": null, "gamma_regularizer": null, "beta_constraint": null, "gamma_constraint": null}, "inbound_nodes": [[["stage2/block3/3x3dwconv", 0, 0, {}]]]}, {"name": "stage2/block3/1x1conv_2", "class_name": "Conv2D", "config": {"name": "stage2/block3/1x1conv_2", "trainable": true, "filters": 116, "kernel_size": [1, 1], "strides": [1, 1], "padding": "same", "data_format": "channels_last", "dilation_rate": [1, 1], "activation": "linear", "use_bias": true, "kernel_initializer": {"class_name": "VarianceScaling", "config": {"scale": 1.0, "mode": "fan_avg", "distribution": "uniform", "seed": null}}, "bias_initializer": {"class_name": "Zeros", "config": {}}, "kernel_regularizer": null, "bias_regularizer": null, "activity_regularizer": null, "kernel_constraint": null, "bias_constraint": null}, "inbound_nodes": [[["stage2/block3/bn_3x3dwconv", 0, 0, {}]]]}, {"name": "stage2/block3/bn_1x1conv_2", "class_name": "BatchNormalization", "config": {"name": "stage2/block3/bn_1x1conv_2", "trainable": true, "axis": -1, "momentum": 0.99, "epsilon": 0.001, "center": true, "scale": true, "beta_initializer": {"class_name": "Zeros", "config": {}}, "gamma_initializer": {"class_name": "Ones", "config": {}}, "moving_mean_initializer": {"class_name": "Zeros", "config": {}}, "moving_variance_initializer": {"class_name": "Ones", "config": {}}, "beta_regularizer": null, "gamma_regularizer": null, "beta_constraint": null, "gamma_constraint": null}, "inbound_nodes": [[["stage2/block3/1x1conv_2", 0, 0, {}]]]}, {"name": "stage2/block3/relu_1x1conv_2", "class_name": "Activation", "config": {"name": "stage2/block3/relu_1x1conv_2", "trainable": true, "activation": "relu"}, "inbound_nodes": [[["stage2/block3/bn_1x1conv_2", 0, 0, {}]]]}, {"name": "stage2/block3/spl/sp0_slice", "class_name": "Lambda", "config": {"name": "stage2/block3/spl/sp0_slice", "trainable": true, "function": ["4wEAAAAAAAAAAQAAAAYAAAATAAAAcyAAAAB8AGQAZACFAmQAZACFAmQAZACFAmQBiACFAmYEGQBT\nACkCTukAAAAAqQApAdoBeikB2gJpcHICAAAA+iEuLi8uLi9rZXJhcy1zaHVmZmxlbmV0VjIvdXRp\nbHMucHnaCDxsYW1iZGE+FgAAAPMAAAAA\n", null, [116]], "function_type": "lambda", "output_shape": null, "output_shape_type": "raw", "arguments": {}}, "inbound_nodes": [[["stage2/block2/channel_shuffle", 0, 0, {}]]]}, {"name": "stage2/block3/concat_1", "class_name": "Concatenate", "config": {"name": "stage2/block3/concat_1", "trainable": true, "axis": -1}, "inbound_nodes": [[["stage2/block3/relu_1x1conv_2", 0, 0, {}], ["stage2/block3/spl/sp0_slice", 0, 0, {}]]]}, {"name": "stage2/block3/channel_shuffle", "class_name": "Lambda", "config": {"name": "stage2/block3/channel_shuffle", "trainable": true, "function": ["4wEAAAAAAAAABQAAAAcAAABDAAAAc1oAAAB8AGoAagGDAGQBZACFAhkAXAN9AX0CfQN8A2QCGgB9\nBHQCagN8AGQGfAF8AmQCfARnBYMCfQB0AmoEfABkB4MCfQB0AmoDfABkCHwBfAJ8A2cEgwJ9AHwA\nUwApCU7pAQAAAOkCAAAA6QAAAADpBAAAAOkDAAAA6f////8pBXIDAAAAcgEAAAByAgAAAHIEAAAA\ncgUAAAByBgAAACkF2gVzaGFwZdoHYXNfbGlzdNoBS9oHcmVzaGFwZdoScGVybXV0ZV9kaW1lbnNp\nb25zKQXaAXjaBmhlaWdodNoFd2lkdGjaCGNoYW5uZWxzWhJjaGFubmVsc19wZXJfc3BsaXSpAHIQ\nAAAA+iEuLi8uLi9rZXJhcy1zaHVmZmxlbmV0VjIvdXRpbHMucHnaD2NoYW5uZWxfc2h1ZmZsZRoA\nAABzDAAAAAABGAEIARYBDAEUAQ==\n", null, null], "function_type": "lambda", "output_shape": null, "output_shape_type": "raw", "arguments": {}}, "inbound_nodes": [[["stage2/block3/concat_1", 0, 0, {}]]]}, {"name": "stage2/block4/spl/sp1_slice", "class_name": "Lambda", "config": {"name": "stage2/block4/spl/sp1_slice", "trainable": true, "function": ["4wEAAAAAAAAAAQAAAAYAAAATAAAAcyAAAAB8AGQAZACFAmQAZACFAmQAZACFAogAZACFAmYEGQBT\nACkBTqkAKQHaAXopAdoCaXByAQAAAPohLi4vLi4va2VyYXMtc2h1ZmZsZW5ldFYyL3V0aWxzLnB5\n2gg8bGFtYmRhPhcAAADzAAAAAA==\n", null, [116]], "function_type": "lambda", "output_shape": null, "output_shape_type": "raw", "arguments": {}}, "inbound_nodes": [[["stage2/block3/channel_shuffle", 0, 0, {}]]]}, {"name": "stage2/block4/1x1conv_1", "class_name": "Conv2D", "config": {"name": "stage2/block4/1x1conv_1", "trainable": true, "filters": 116, "kernel_size": [1, 1], "strides": [1, 1], "padding": "same", "data_format": "channels_last", "dilation_rate": [1, 1], "activation": "linear", "use_bias": true, "kernel_initializer": {"class_name": "VarianceScaling", "config": {"scale": 1.0, "mode": "fan_avg", "distribution": "uniform", "seed": null}}, "bias_initializer": {"class_name": "Zeros", "config": {}}, "kernel_regularizer": null, "bias_regularizer": null, "activity_regularizer": null, "kernel_constraint": null, "bias_constraint": null}, "inbound_nodes": [[["stage2/block4/spl/sp1_slice", 0, 0, {}]]]}, {"name": "stage2/block4/bn_1x1conv_1", "class_name": "BatchNormalization", "config": {"name": "stage2/block4/bn_1x1conv_1", "trainable": true, "axis": -1, "momentum": 0.99, "epsilon": 0.001, "center": true, "scale": true, "beta_initializer": {"class_name": "Zeros", "config": {}}, "gamma_initializer": {"class_name": "Ones", "config": {}}, "moving_mean_initializer": {"class_name": "Zeros", "config": {}}, "moving_variance_initializer": {"class_name": "Ones", "config": {}}, "beta_regularizer": null, "gamma_regularizer": null, "beta_constraint": null, "gamma_constraint": null}, "inbound_nodes": [[["stage2/block4/1x1conv_1", 0, 0, {}]]]}, {"name": "stage2/block4/relu_1x1conv_1", "class_name": "Activation", "config": {"name": "stage2/block4/relu_1x1conv_1", "trainable": true, "activation": "relu"}, "inbound_nodes": [[["stage2/block4/bn_1x1conv_1", 0, 0, {}]]]}, {"name": "stage2/block4/3x3dwconv", "class_name": "DepthwiseConv2D", "config": {"name": "stage2/block4/3x3dwconv", "trainable": true, "kernel_size": [3, 3], "strides": [1, 1], "padding": "same", "data_format": "channels_last", "dilation_rate": [1, 1], "activation": "linear", "use_bias": true, "bias_initializer": {"class_name": "Zeros", "config": {}}, "bias_regularizer": null, "activity_regularizer": null, "bias_constraint": null, "depth_multiplier": 1, "depthwise_initializer": {"class_name": "VarianceScaling", "config": {"scale": 1.0, "mode": "fan_avg", "distribution": "uniform", "seed": null}}, "depthwise_regularizer": null, "depthwise_constraint": null}, "inbound_nodes": [[["stage2/block4/relu_1x1conv_1", 0, 0, {}]]]}, {"name": "stage2/block4/bn_3x3dwconv", "class_name": "BatchNormalization", "config": {"name": "stage2/block4/bn_3x3dwconv", "trainable": true, "axis": -1, "momentum": 0.99, "epsilon": 0.001, "center": true, "scale": true, "beta_initializer": {"class_name": "Zeros", "config": {}}, "gamma_initializer": {"class_name": "Ones", "config": {}}, "moving_mean_initializer": {"class_name": "Zeros", "config": {}}, "moving_variance_initializer": {"class_name": "Ones", "config": {}}, "beta_regularizer": null, "gamma_regularizer": null, "beta_constraint": null, "gamma_constraint": null}, "inbound_nodes": [[["stage2/block4/3x3dwconv", 0, 0, {}]]]}, {"name": "stage2/block4/1x1conv_2", "class_name": "Conv2D", "config": {"name": "stage2/block4/1x1conv_2", "trainable": true, "filters": 116, "kernel_size": [1, 1], "strides": [1, 1], "padding": "same", "data_format": "channels_last", "dilation_rate": [1, 1], "activation": "linear", "use_bias": true, "kernel_initializer": {"class_name": "VarianceScaling", "config": {"scale": 1.0, "mode": "fan_avg", "distribution": "uniform", "seed": null}}, "bias_initializer": {"class_name": "Zeros", "config": {}}, "kernel_regularizer": null, "bias_regularizer": null, "activity_regularizer": null, "kernel_constraint": null, "bias_constraint": null}, "inbound_nodes": [[["stage2/block4/bn_3x3dwconv", 0, 0, {}]]]}, {"name": "stage2/block4/bn_1x1conv_2", "class_name": "BatchNormalization", "config": {"name": "stage2/block4/bn_1x1conv_2", "trainable": true, "axis": -1, "momentum": 0.99, "epsilon": 0.001, "center": true, "scale": true, "beta_initializer": {"class_name": "Zeros", "config": {}}, "gamma_initializer": {"class_name": "Ones", "config": {}}, "moving_mean_initializer": {"class_name": "Zeros", "config": {}}, "moving_variance_initializer": {"class_name": "Ones", "config": {}}, "beta_regularizer": null, "gamma_regularizer": null, "beta_constraint": null, "gamma_constraint": null}, "inbound_nodes": [[["stage2/block4/1x1conv_2", 0, 0, {}]]]}, {"name": "stage2/block4/relu_1x1conv_2", "class_name": "Activation", "config": {"name": "stage2/block4/relu_1x1conv_2", "trainable": true, "activation": "relu"}, "inbound_nodes": [[["stage2/block4/bn_1x1conv_2", 0, 0, {}]]]}, {"name": "stage2/block4/spl/sp0_slice", "class_name": "Lambda", "config": {"name": "stage2/block4/spl/sp0_slice", "trainable": true, "function": ["4wEAAAAAAAAAAQAAAAYAAAATAAAAcyAAAAB8AGQAZACFAmQAZACFAmQAZACFAmQBiACFAmYEGQBT\nACkCTukAAAAAqQApAdoBeikB2gJpcHICAAAA+iEuLi8uLi9rZXJhcy1zaHVmZmxlbmV0VjIvdXRp\nbHMucHnaCDxsYW1iZGE+FgAAAPMAAAAA\n", null, [116]], "function_type": "lambda", "output_shape": null, "output_shape_type": "raw", "arguments": {}}, "inbound_nodes": [[["stage2/block3/channel_shuffle", 0, 0, {}]]]}, {"name": "stage2/block4/concat_1", "class_name": "Concatenate", "config": {"name": "stage2/block4/concat_1", "trainable": true, "axis": -1}, "inbound_nodes": [[["stage2/block4/relu_1x1conv_2", 0, 0, {}], ["stage2/block4/spl/sp0_slice", 0, 0, {}]]]}, {"name": "stage2/block4/channel_shuffle", "class_name": "Lambda", "config": {"name": "stage2/block4/channel_shuffle", "trainable": true, "function": ["4wEAAAAAAAAABQAAAAcAAABDAAAAc1oAAAB8AGoAagGDAGQBZACFAhkAXAN9AX0CfQN8A2QCGgB9\nBHQCagN8AGQGfAF8AmQCfARnBYMCfQB0AmoEfABkB4MCfQB0AmoDfABkCHwBfAJ8A2cEgwJ9AHwA\nUwApCU7pAQAAAOkCAAAA6QAAAADpBAAAAOkDAAAA6f////8pBXIDAAAAcgEAAAByAgAAAHIEAAAA\ncgUAAAByBgAAACkF2gVzaGFwZdoHYXNfbGlzdNoBS9oHcmVzaGFwZdoScGVybXV0ZV9kaW1lbnNp\nb25zKQXaAXjaBmhlaWdodNoFd2lkdGjaCGNoYW5uZWxzWhJjaGFubmVsc19wZXJfc3BsaXSpAHIQ\nAAAA+iEuLi8uLi9rZXJhcy1zaHVmZmxlbmV0VjIvdXRpbHMucHnaD2NoYW5uZWxfc2h1ZmZsZRoA\nAABzDAAAAAABGAEIARYBDAEUAQ==\n", null, null], "function_type": "lambda", "output_shape": null, "output_shape_type": "raw", "arguments": {}}, "inbound_nodes": [[["stage2/block4/concat_1", 0, 0, {}]]]}, {"name": "stage3/block1/1x1conv_1", "class_name": "Conv2D", "config": {"name": "stage3/block1/1x1conv_1", "trainable": true, "filters": 232, "kernel_size": [1, 1], "strides": [1, 1], "padding": "same", "data_format": "channels_last", "dilation_rate": [1, 1], "activation": "linear", "use_bias": true, "kernel_initializer": {"class_name": "VarianceScaling", "config": {"scale": 1.0, "mode": "fan_avg", "distribution": "uniform", "seed": null}}, "bias_initializer": {"class_name": "Zeros", "config": {}}, "kernel_regularizer": null, "bias_regularizer": null, "activity_regularizer": null, "kernel_constraint": null, "bias_constraint": null}, "inbound_nodes": [[["stage2/block4/channel_shuffle", 0, 0, {}]]]}, {"name": "stage3/block1/bn_1x1conv_1", "class_name": "BatchNormalization", "config": {"name": "stage3/block1/bn_1x1conv_1", "trainable": true, "axis": -1, "momentum": 0.99, "epsilon": 0.001, "center": true, "scale": true, "beta_initializer": {"class_name": "Zeros", "config": {}}, "gamma_initializer": {"class_name": "Ones", "config": {}}, "moving_mean_initializer": {"class_name": "Zeros", "config": {}}, "moving_variance_initializer": {"class_name": "Ones", "config": {}}, "beta_regularizer": null, "gamma_regularizer": null, "beta_constraint": null, "gamma_constraint": null}, "inbound_nodes": [[["stage3/block1/1x1conv_1", 0, 0, {}]]]}, {"name": "stage3/block1/relu_1x1conv_1", "class_name": "Activation", "config": {"name": "stage3/block1/relu_1x1conv_1", "trainable": true, "activation": "relu"}, "inbound_nodes": [[["stage3/block1/bn_1x1conv_1", 0, 0, {}]]]}, {"name": "stage3/block1/3x3dwconv", "class_name": "DepthwiseConv2D", "config": {"name": "stage3/block1/3x3dwconv", "trainable": true, "kernel_size": [3, 3], "strides": [2, 2], "padding": "same", "data_format": "channels_last", "dilation_rate": [1, 1], "activation": "linear", "use_bias": true, "bias_initializer": {"class_name": "Zeros", "config": {}}, "bias_regularizer": null, "activity_regularizer": null, "bias_constraint": null, "depth_multiplier": 1, "depthwise_initializer": {"class_name": "VarianceScaling", "config": {"scale": 1.0, "mode": "fan_avg", "distribution": "uniform", "seed": null}}, "depthwise_regularizer": null, "depthwise_constraint": null}, "inbound_nodes": [[["stage3/block1/relu_1x1conv_1", 0, 0, {}]]]}, {"name": "stage3/block1/3x3dwconv_2", "class_name": "DepthwiseConv2D", "config": {"name": "stage3/block1/3x3dwconv_2", "trainable": true, "kernel_size": [3, 3], "strides": [2, 2], "padding": "same", "data_format": "channels_last", "dilation_rate": [1, 1], "activation": "linear", "use_bias": true, "bias_initializer": {"class_name": "Zeros", "config": {}}, "bias_regularizer": null, "activity_regularizer": null, "bias_constraint": null, "depth_multiplier": 1, "depthwise_initializer": {"class_name": "VarianceScaling", "config": {"scale": 1.0, "mode": "fan_avg", "distribution": "uniform", "seed": null}}, "depthwise_regularizer": null, "depthwise_constraint": null}, "inbound_nodes": [[["stage2/block4/channel_shuffle", 0, 0, {}]]]}, {"name": "stage3/block1/bn_3x3dwconv", "class_name": "BatchNormalization", "config": {"name": "stage3/block1/bn_3x3dwconv", "trainable": true, "axis": -1, "momentum": 0.99, "epsilon": 0.001, "center": true, "scale": true, "beta_initializer": {"class_name": "Zeros", "config": {}}, "gamma_initializer": {"class_name": "Ones", "config": {}}, "moving_mean_initializer": {"class_name": "Zeros", "config": {}}, "moving_variance_initializer": {"class_name": "Ones", "config": {}}, "beta_regularizer": null, "gamma_regularizer": null, "beta_constraint": null, "gamma_constraint": null}, "inbound_nodes": [[["stage3/block1/3x3dwconv", 0, 0, {}]]]}, {"name": "stage3/block1/bn_3x3dwconv_2", "class_name": "BatchNormalization", "config": {"name": "stage3/block1/bn_3x3dwconv_2", "trainable": true, "axis": -1, "momentum": 0.99, "epsilon": 0.001, "center": true, "scale": true, "beta_initializer": {"class_name": "Zeros", "config": {}}, "gamma_initializer": {"class_name": "Ones", "config": {}}, "moving_mean_initializer": {"class_name": "Zeros", "config": {}}, "moving_variance_initializer": {"class_name": "Ones", "config": {}}, "beta_regularizer": null, "gamma_regularizer": null, "beta_constraint": null, "gamma_constraint": null}, "inbound_nodes": [[["stage3/block1/3x3dwconv_2", 0, 0, {}]]]}, {"name": "stage3/block1/1x1conv_2", "class_name": "Conv2D", "config": {"name": "stage3/block1/1x1conv_2", "trainable": true, "filters": 232, "kernel_size": [1, 1], "strides": [1, 1], "padding": "same", "data_format": "channels_last", "dilation_rate": [1, 1], "activation": "linear", "use_bias": true, "kernel_initializer": {"class_name": "VarianceScaling", "config": {"scale": 1.0, "mode": "fan_avg", "distribution": "uniform", "seed": null}}, "bias_initializer": {"class_name": "Zeros", "config": {}}, "kernel_regularizer": null, "bias_regularizer": null, "activity_regularizer": null, "kernel_constraint": null, "bias_constraint": null}, "inbound_nodes": [[["stage3/block1/bn_3x3dwconv", 0, 0, {}]]]}, {"name": "stage3/block1/1x1_conv_3", "class_name": "Conv2D", "config": {"name": "stage3/block1/1x1_conv_3", "trainable": true, "filters": 232, "kernel_size": [1, 1], "strides": [1, 1], "padding": "same", "data_format": "channels_last", "dilation_rate": [1, 1], "activation": "linear", "use_bias": true, "kernel_initializer": {"class_name": "VarianceScaling", "config": {"scale": 1.0, "mode": "fan_avg", "distribution": "uniform", "seed": null}}, "bias_initializer": {"class_name": "Zeros", "config": {}}, "kernel_regularizer": null, "bias_regularizer": null, "activity_regularizer": null, "kernel_constraint": null, "bias_constraint": null}, "inbound_nodes": [[["stage3/block1/bn_3x3dwconv_2", 0, 0, {}]]]}, {"name": "stage3/block1/bn_1x1conv_2", "class_name": "BatchNormalization", "config": {"name": "stage3/block1/bn_1x1conv_2", "trainable": true, "axis": -1, "momentum": 0.99, "epsilon": 0.001, "center": true, "scale": true, "beta_initializer": {"class_name": "Zeros", "config": {}}, "gamma_initializer": {"class_name": "Ones", "config": {}}, "moving_mean_initializer": {"class_name": "Zeros", "config": {}}, "moving_variance_initializer": {"class_name": "Ones", "config": {}}, "beta_regularizer": null, "gamma_regularizer": null, "beta_constraint": null, "gamma_constraint": null}, "inbound_nodes": [[["stage3/block1/1x1conv_2", 0, 0, {}]]]}, {"name": "stage3/block1/bn_1x1conv_3", "class_name": "BatchNormalization", "config": {"name": "stage3/block1/bn_1x1conv_3", "trainable": true, "axis": -1, "momentum": 0.99, "epsilon": 0.001, "center": true, "scale": true, "beta_initializer": {"class_name": "Zeros", "config": {}}, "gamma_initializer": {"class_name": "Ones", "config": {}}, "moving_mean_initializer": {"class_name": "Zeros", "config": {}}, "moving_variance_initializer": {"class_name": "Ones", "config": {}}, "beta_regularizer": null, "gamma_regularizer": null, "beta_constraint": null, "gamma_constraint": null}, "inbound_nodes": [[["stage3/block1/1x1_conv_3", 0, 0, {}]]]}, {"name": "stage3/block1/relu_1x1conv_2", "class_name": "Activation", "config": {"name": "stage3/block1/relu_1x1conv_2", "trainable": true, "activation": "relu"}, "inbound_nodes": [[["stage3/block1/bn_1x1conv_2", 0, 0, {}]]]}, {"name": "stage3/block1/relu_1x1conv_3", "class_name": "Activation", "config": {"name": "stage3/block1/relu_1x1conv_3", "trainable": true, "activation": "relu"}, "inbound_nodes": [[["stage3/block1/bn_1x1conv_3", 0, 0, {}]]]}, {"name": "stage3/block1/concat_2", "class_name": "Concatenate", "config": {"name": "stage3/block1/concat_2", "trainable": true, "axis": -1}, "inbound_nodes": [[["stage3/block1/relu_1x1conv_2", 0, 0, {}], ["stage3/block1/relu_1x1conv_3", 0, 0, {}]]]}, {"name": "stage3/block1/channel_shuffle", "class_name": "Lambda", "config": {"name": "stage3/block1/channel_shuffle", "trainable": true, "function": ["4wEAAAAAAAAABQAAAAcAAABDAAAAc1oAAAB8AGoAagGDAGQBZACFAhkAXAN9AX0CfQN8A2QCGgB9\nBHQCagN8AGQGfAF8AmQCfARnBYMCfQB0AmoEfABkB4MCfQB0AmoDfABkCHwBfAJ8A2cEgwJ9AHwA\nUwApCU7pAQAAAOkCAAAA6QAAAADpBAAAAOkDAAAA6f////8pBXIDAAAAcgEAAAByAgAAAHIEAAAA\ncgUAAAByBgAAACkF2gVzaGFwZdoHYXNfbGlzdNoBS9oHcmVzaGFwZdoScGVybXV0ZV9kaW1lbnNp\nb25zKQXaAXjaBmhlaWdodNoFd2lkdGjaCGNoYW5uZWxzWhJjaGFubmVsc19wZXJfc3BsaXSpAHIQ\nAAAA+iEuLi8uLi9rZXJhcy1zaHVmZmxlbmV0VjIvdXRpbHMucHnaD2NoYW5uZWxfc2h1ZmZsZRoA\nAABzDAAAAAABGAEIARYBDAEUAQ==\n", null, null], "function_type": "lambda", "output_shape": null, "output_shape_type": "raw", "arguments": {}}, "inbound_nodes": [[["stage3/block1/concat_2", 0, 0, {}]]]}, {"name": "stage3/block2/spl/sp1_slice", "class_name": "Lambda", "config": {"name": "stage3/block2/spl/sp1_slice", "trainable": true, "function": ["4wEAAAAAAAAAAQAAAAYAAAATAAAAcyAAAAB8AGQAZACFAmQAZACFAmQAZACFAogAZACFAmYEGQBT\nACkBTqkAKQHaAXopAdoCaXByAQAAAPohLi4vLi4va2VyYXMtc2h1ZmZsZW5ldFYyL3V0aWxzLnB5\n2gg8bGFtYmRhPhcAAADzAAAAAA==\n", null, [232]], "function_type": "lambda", "output_shape": null, "output_shape_type": "raw", "arguments": {}}, "inbound_nodes": [[["stage3/block1/channel_shuffle", 0, 0, {}]]]}, {"name": "stage3/block2/1x1conv_1", "class_name": "Conv2D", "config": {"name": "stage3/block2/1x1conv_1", "trainable": true, "filters": 232, "kernel_size": [1, 1], "strides": [1, 1], "padding": "same", "data_format": "channels_last", "dilation_rate": [1, 1], "activation": "linear", "use_bias": true, "kernel_initializer": {"class_name": "VarianceScaling", "config": {"scale": 1.0, "mode": "fan_avg", "distribution": "uniform", "seed": null}}, "bias_initializer": {"class_name": "Zeros", "config": {}}, "kernel_regularizer": null, "bias_regularizer": null, "activity_regularizer": null, "kernel_constraint": null, "bias_constraint": null}, "inbound_nodes": [[["stage3/block2/spl/sp1_slice", 0, 0, {}]]]}, {"name": "stage3/block2/bn_1x1conv_1", "class_name": "BatchNormalization", "config": {"name": "stage3/block2/bn_1x1conv_1", "trainable": true, "axis": -1, "momentum": 0.99, "epsilon": 0.001, "center": true, "scale": true, "beta_initializer": {"class_name": "Zeros", "config": {}}, "gamma_initializer": {"class_name": "Ones", "config": {}}, "moving_mean_initializer": {"class_name": "Zeros", "config": {}}, "moving_variance_initializer": {"class_name": "Ones", "config": {}}, "beta_regularizer": null, "gamma_regularizer": null, "beta_constraint": null, "gamma_constraint": null}, "inbound_nodes": [[["stage3/block2/1x1conv_1", 0, 0, {}]]]}, {"name": "stage3/block2/relu_1x1conv_1", "class_name": "Activation", "config": {"name": "stage3/block2/relu_1x1conv_1", "trainable": true, "activation": "relu"}, "inbound_nodes": [[["stage3/block2/bn_1x1conv_1", 0, 0, {}]]]}, {"name": "stage3/block2/3x3dwconv", "class_name": "DepthwiseConv2D", "config": {"name": "stage3/block2/3x3dwconv", "trainable": true, "kernel_size": [3, 3], "strides": [1, 1], "padding": "same", "data_format": "channels_last", "dilation_rate": [1, 1], "activation": "linear", "use_bias": true, "bias_initializer": {"class_name": "Zeros", "config": {}}, "bias_regularizer": null, "activity_regularizer": null, "bias_constraint": null, "depth_multiplier": 1, "depthwise_initializer": {"class_name": "VarianceScaling", "config": {"scale": 1.0, "mode": "fan_avg", "distribution": "uniform", "seed": null}}, "depthwise_regularizer": null, "depthwise_constraint": null}, "inbound_nodes": [[["stage3/block2/relu_1x1conv_1", 0, 0, {}]]]}, {"name": "stage3/block2/bn_3x3dwconv", "class_name": "BatchNormalization", "config": {"name": "stage3/block2/bn_3x3dwconv", "trainable": true, "axis": -1, "momentum": 0.99, "epsilon": 0.001, "center": true, "scale": true, "beta_initializer": {"class_name": "Zeros", "config": {}}, "gamma_initializer": {"class_name": "Ones", "config": {}}, "moving_mean_initializer": {"class_name": "Zeros", "config": {}}, "moving_variance_initializer": {"class_name": "Ones", "config": {}}, "beta_regularizer": null, "gamma_regularizer": null, "beta_constraint": null, "gamma_constraint": null}, "inbound_nodes": [[["stage3/block2/3x3dwconv", 0, 0, {}]]]}, {"name": "stage3/block2/1x1conv_2", "class_name": "Conv2D", "config": {"name": "stage3/block2/1x1conv_2", "trainable": true, "filters": 232, "kernel_size": [1, 1], "strides": [1, 1], "padding": "same", "data_format": "channels_last", "dilation_rate": [1, 1], "activation": "linear", "use_bias": true, "kernel_initializer": {"class_name": "VarianceScaling", "config": {"scale": 1.0, "mode": "fan_avg", "distribution": "uniform", "seed": null}}, "bias_initializer": {"class_name": "Zeros", "config": {}}, "kernel_regularizer": null, "bias_regularizer": null, "activity_regularizer": null, "kernel_constraint": null, "bias_constraint": null}, "inbound_nodes": [[["stage3/block2/bn_3x3dwconv", 0, 0, {}]]]}, {"name": "stage3/block2/bn_1x1conv_2", "class_name": "BatchNormalization", "config": {"name": "stage3/block2/bn_1x1conv_2", "trainable": true, "axis": -1, "momentum": 0.99, "epsilon": 0.001, "center": true, "scale": true, "beta_initializer": {"class_name": "Zeros", "config": {}}, "gamma_initializer": {"class_name": "Ones", "config": {}}, "moving_mean_initializer": {"class_name": "Zeros", "config": {}}, "moving_variance_initializer": {"class_name": "Ones", "config": {}}, "beta_regularizer": null, "gamma_regularizer": null, "beta_constraint": null, "gamma_constraint": null}, "inbound_nodes": [[["stage3/block2/1x1conv_2", 0, 0, {}]]]}, {"name": "stage3/block2/relu_1x1conv_2", "class_name": "Activation", "config": {"name": "stage3/block2/relu_1x1conv_2", "trainable": true, "activation": "relu"}, "inbound_nodes": [[["stage3/block2/bn_1x1conv_2", 0, 0, {}]]]}, {"name": "stage3/block2/spl/sp0_slice", "class_name": "Lambda", "config": {"name": "stage3/block2/spl/sp0_slice", "trainable": true, "function": ["4wEAAAAAAAAAAQAAAAYAAAATAAAAcyAAAAB8AGQAZACFAmQAZACFAmQAZACFAmQBiACFAmYEGQBT\nACkCTukAAAAAqQApAdoBeikB2gJpcHICAAAA+iEuLi8uLi9rZXJhcy1zaHVmZmxlbmV0VjIvdXRp\nbHMucHnaCDxsYW1iZGE+FgAAAPMAAAAA\n", null, [232]], "function_type": "lambda", "output_shape": null, "output_shape_type": "raw", "arguments": {}}, "inbound_nodes": [[["stage3/block1/channel_shuffle", 0, 0, {}]]]}, {"name": "stage3/block2/concat_1", "class_name": "Concatenate", "config": {"name": "stage3/block2/concat_1", "trainable": true, "axis": -1}, "inbound_nodes": [[["stage3/block2/relu_1x1conv_2", 0, 0, {}], ["stage3/block2/spl/sp0_slice", 0, 0, {}]]]}, {"name": "stage3/block2/channel_shuffle", "class_name": "Lambda", "config": {"name": "stage3/block2/channel_shuffle", "trainable": true, "function": ["4wEAAAAAAAAABQAAAAcAAABDAAAAc1oAAAB8AGoAagGDAGQBZACFAhkAXAN9AX0CfQN8A2QCGgB9\nBHQCagN8AGQGfAF8AmQCfARnBYMCfQB0AmoEfABkB4MCfQB0AmoDfABkCHwBfAJ8A2cEgwJ9AHwA\nUwApCU7pAQAAAOkCAAAA6QAAAADpBAAAAOkDAAAA6f////8pBXIDAAAAcgEAAAByAgAAAHIEAAAA\ncgUAAAByBgAAACkF2gVzaGFwZdoHYXNfbGlzdNoBS9oHcmVzaGFwZdoScGVybXV0ZV9kaW1lbnNp\nb25zKQXaAXjaBmhlaWdodNoFd2lkdGjaCGNoYW5uZWxzWhJjaGFubmVsc19wZXJfc3BsaXSpAHIQ\nAAAA+iEuLi8uLi9rZXJhcy1zaHVmZmxlbmV0VjIvdXRpbHMucHnaD2NoYW5uZWxfc2h1ZmZsZRoA\nAABzDAAAAAABGAEIARYBDAEUAQ==\n", null, null], "function_type": "lambda", "output_shape": null, "output_shape_type": "raw", "arguments": {}}, "inbound_nodes": [[["stage3/block2/concat_1", 0, 0, {}]]]}, {"name": "stage3/block3/spl/sp1_slice", "class_name": "Lambda", "config": {"name": "stage3/block3/spl/sp1_slice", "trainable": true, "function": ["4wEAAAAAAAAAAQAAAAYAAAATAAAAcyAAAAB8AGQAZACFAmQAZACFAmQAZACFAogAZACFAmYEGQBT\nACkBTqkAKQHaAXopAdoCaXByAQAAAPohLi4vLi4va2VyYXMtc2h1ZmZsZW5ldFYyL3V0aWxzLnB5\n2gg8bGFtYmRhPhcAAADzAAAAAA==\n", null, [232]], "function_type": "lambda", "output_shape": null, "output_shape_type": "raw", "arguments": {}}, "inbound_nodes": [[["stage3/block2/channel_shuffle", 0, 0, {}]]]}, {"name": "stage3/block3/1x1conv_1", "class_name": "Conv2D", "config": {"name": "stage3/block3/1x1conv_1", "trainable": true, "filters": 232, "kernel_size": [1, 1], "strides": [1, 1], "padding": "same", "data_format": "channels_last", "dilation_rate": [1, 1], "activation": "linear", "use_bias": true, "kernel_initializer": {"class_name": "VarianceScaling", "config": {"scale": 1.0, "mode": "fan_avg", "distribution": "uniform", "seed": null}}, "bias_initializer": {"class_name": "Zeros", "config": {}}, "kernel_regularizer": null, "bias_regularizer": null, "activity_regularizer": null, "kernel_constraint": null, "bias_constraint": null}, "inbound_nodes": [[["stage3/block3/spl/sp1_slice", 0, 0, {}]]]}, {"name": "stage3/block3/bn_1x1conv_1", "class_name": "BatchNormalization", "config": {"name": "stage3/block3/bn_1x1conv_1", "trainable": true, "axis": -1, "momentum": 0.99, "epsilon": 0.001, "center": true, "scale": true, "beta_initializer": {"class_name": "Zeros", "config": {}}, "gamma_initializer": {"class_name": "Ones", "config": {}}, "moving_mean_initializer": {"class_name": "Zeros", "config": {}}, "moving_variance_initializer": {"class_name": "Ones", "config": {}}, "beta_regularizer": null, "gamma_regularizer": null, "beta_constraint": null, "gamma_constraint": null}, "inbound_nodes": [[["stage3/block3/1x1conv_1", 0, 0, {}]]]}, {"name": "stage3/block3/relu_1x1conv_1", "class_name": "Activation", "config": {"name": "stage3/block3/relu_1x1conv_1", "trainable": true, "activation": "relu"}, "inbound_nodes": [[["stage3/block3/bn_1x1conv_1", 0, 0, {}]]]}, {"name": "stage3/block3/3x3dwconv", "class_name": "DepthwiseConv2D", "config": {"name": "stage3/block3/3x3dwconv", "trainable": true, "kernel_size": [3, 3], "strides": [1, 1], "padding": "same", "data_format": "channels_last", "dilation_rate": [1, 1], "activation": "linear", "use_bias": true, "bias_initializer": {"class_name": "Zeros", "config": {}}, "bias_regularizer": null, "activity_regularizer": null, "bias_constraint": null, "depth_multiplier": 1, "depthwise_initializer": {"class_name": "VarianceScaling", "config": {"scale": 1.0, "mode": "fan_avg", "distribution": "uniform", "seed": null}}, "depthwise_regularizer": null, "depthwise_constraint": null}, "inbound_nodes": [[["stage3/block3/relu_1x1conv_1", 0, 0, {}]]]}, {"name": "stage3/block3/bn_3x3dwconv", "class_name": "BatchNormalization", "config": {"name": "stage3/block3/bn_3x3dwconv", "trainable": true, "axis": -1, "momentum": 0.99, "epsilon": 0.001, "center": true, "scale": true, "beta_initializer": {"class_name": "Zeros", "config": {}}, "gamma_initializer": {"class_name": "Ones", "config": {}}, "moving_mean_initializer": {"class_name": "Zeros", "config": {}}, "moving_variance_initializer": {"class_name": "Ones", "config": {}}, "beta_regularizer": null, "gamma_regularizer": null, "beta_constraint": null, "gamma_constraint": null}, "inbound_nodes": [[["stage3/block3/3x3dwconv", 0, 0, {}]]]}, {"name": "stage3/block3/1x1conv_2", "class_name": "Conv2D", "config": {"name": "stage3/block3/1x1conv_2", "trainable": true, "filters": 232, "kernel_size": [1, 1], "strides": [1, 1], "padding": "same", "data_format": "channels_last", "dilation_rate": [1, 1], "activation": "linear", "use_bias": true, "kernel_initializer": {"class_name": "VarianceScaling", "config": {"scale": 1.0, "mode": "fan_avg", "distribution": "uniform", "seed": null}}, "bias_initializer": {"class_name": "Zeros", "config": {}}, "kernel_regularizer": null, "bias_regularizer": null, "activity_regularizer": null, "kernel_constraint": null, "bias_constraint": null}, "inbound_nodes": [[["stage3/block3/bn_3x3dwconv", 0, 0, {}]]]}, {"name": "stage3/block3/bn_1x1conv_2", "class_name": "BatchNormalization", "config": {"name": "stage3/block3/bn_1x1conv_2", "trainable": true, "axis": -1, "momentum": 0.99, "epsilon": 0.001, "center": true, "scale": true, "beta_initializer": {"class_name": "Zeros", "config": {}}, "gamma_initializer": {"class_name": "Ones", "config": {}}, "moving_mean_initializer": {"class_name": "Zeros", "config": {}}, "moving_variance_initializer": {"class_name": "Ones", "config": {}}, "beta_regularizer": null, "gamma_regularizer": null, "beta_constraint": null, "gamma_constraint": null}, "inbound_nodes": [[["stage3/block3/1x1conv_2", 0, 0, {}]]]}, {"name": "stage3/block3/relu_1x1conv_2", "class_name": "Activation", "config": {"name": "stage3/block3/relu_1x1conv_2", "trainable": true, "activation": "relu"}, "inbound_nodes": [[["stage3/block3/bn_1x1conv_2", 0, 0, {}]]]}, {"name": "stage3/block3/spl/sp0_slice", "class_name": "Lambda", "config": {"name": "stage3/block3/spl/sp0_slice", "trainable": true, "function": ["4wEAAAAAAAAAAQAAAAYAAAATAAAAcyAAAAB8AGQAZACFAmQAZACFAmQAZACFAmQBiACFAmYEGQBT\nACkCTukAAAAAqQApAdoBeikB2gJpcHICAAAA+iEuLi8uLi9rZXJhcy1zaHVmZmxlbmV0VjIvdXRp\nbHMucHnaCDxsYW1iZGE+FgAAAPMAAAAA\n", null, [232]], "function_type": "lambda", "output_shape": null, "output_shape_type": "raw", "arguments": {}}, "inbound_nodes": [[["stage3/block2/channel_shuffle", 0, 0, {}]]]}, {"name": "stage3/block3/concat_1", "class_name": "Concatenate", "config": {"name": "stage3/block3/concat_1", "trainable": true, "axis": -1}, "inbound_nodes": [[["stage3/block3/relu_1x1conv_2", 0, 0, {}], ["stage3/block3/spl/sp0_slice", 0, 0, {}]]]}, {"name": "stage3/block3/channel_shuffle", "class_name": "Lambda", "config": {"name": "stage3/block3/channel_shuffle", "trainable": true, "function": ["4wEAAAAAAAAABQAAAAcAAABDAAAAc1oAAAB8AGoAagGDAGQBZACFAhkAXAN9AX0CfQN8A2QCGgB9\nBHQCagN8AGQGfAF8AmQCfARnBYMCfQB0AmoEfABkB4MCfQB0AmoDfABkCHwBfAJ8A2cEgwJ9AHwA\nUwApCU7pAQAAAOkCAAAA6QAAAADpBAAAAOkDAAAA6f////8pBXIDAAAAcgEAAAByAgAAAHIEAAAA\ncgUAAAByBgAAACkF2gVzaGFwZdoHYXNfbGlzdNoBS9oHcmVzaGFwZdoScGVybXV0ZV9kaW1lbnNp\nb25zKQXaAXjaBmhlaWdodNoFd2lkdGjaCGNoYW5uZWxzWhJjaGFubmVsc19wZXJfc3BsaXSpAHIQ\nAAAA+iEuLi8uLi9rZXJhcy1zaHVmZmxlbmV0VjIvdXRpbHMucHnaD2NoYW5uZWxfc2h1ZmZsZRoA\nAABzDAAAAAABGAEIARYBDAEUAQ==\n", null, null], "function_type": "lambda", "output_shape": null, "output_shape_type": "raw", "arguments": {}}, "inbound_nodes": [[["stage3/block3/concat_1", 0, 0, {}]]]}, {"name": "stage3/block4/spl/sp1_slice", "class_name": "Lambda", "config": {"name": "stage3/block4/spl/sp1_slice", "trainable": true, "function": ["4wEAAAAAAAAAAQAAAAYAAAATAAAAcyAAAAB8AGQAZACFAmQAZACFAmQAZACFAogAZACFAmYEGQBT\nACkBTqkAKQHaAXopAdoCaXByAQAAAPohLi4vLi4va2VyYXMtc2h1ZmZsZW5ldFYyL3V0aWxzLnB5\n2gg8bGFtYmRhPhcAAADzAAAAAA==\n", null, [232]], "function_type": "lambda", "output_shape": null, "output_shape_type": "raw", "arguments": {}}, "inbound_nodes": [[["stage3/block3/channel_shuffle", 0, 0, {}]]]}, {"name": "stage3/block4/1x1conv_1", "class_name": "Conv2D", "config": {"name": "stage3/block4/1x1conv_1", "trainable": true, "filters": 232, "kernel_size": [1, 1], "strides": [1, 1], "padding": "same", "data_format": "channels_last", "dilation_rate": [1, 1], "activation": "linear", "use_bias": true, "kernel_initializer": {"class_name": "VarianceScaling", "config": {"scale": 1.0, "mode": "fan_avg", "distribution": "uniform", "seed": null}}, "bias_initializer": {"class_name": "Zeros", "config": {}}, "kernel_regularizer": null, "bias_regularizer": null, "activity_regularizer": null, "kernel_constraint": null, "bias_constraint": null}, "inbound_nodes": [[["stage3/block4/spl/sp1_slice", 0, 0, {}]]]}, {"name": "stage3/block4/bn_1x1conv_1", "class_name": "BatchNormalization", "config": {"name": "stage3/block4/bn_1x1conv_1", "trainable": true, "axis": -1, "momentum": 0.99, "epsilon": 0.001, "center": true, "scale": true, "beta_initializer": {"class_name": "Zeros", "config": {}}, "gamma_initializer": {"class_name": "Ones", "config": {}}, "moving_mean_initializer": {"class_name": "Zeros", "config": {}}, "moving_variance_initializer": {"class_name": "Ones", "config": {}}, "beta_regularizer": null, "gamma_regularizer": null, "beta_constraint": null, "gamma_constraint": null}, "inbound_nodes": [[["stage3/block4/1x1conv_1", 0, 0, {}]]]}, {"name": "stage3/block4/relu_1x1conv_1", "class_name": "Activation", "config": {"name": "stage3/block4/relu_1x1conv_1", "trainable": true, "activation": "relu"}, "inbound_nodes": [[["stage3/block4/bn_1x1conv_1", 0, 0, {}]]]}, {"name": "stage3/block4/3x3dwconv", "class_name": "DepthwiseConv2D", "config": {"name": "stage3/block4/3x3dwconv", "trainable": true, "kernel_size": [3, 3], "strides": [1, 1], "padding": "same", "data_format": "channels_last", "dilation_rate": [1, 1], "activation": "linear", "use_bias": true, "bias_initializer": {"class_name": "Zeros", "config": {}}, "bias_regularizer": null, "activity_regularizer": null, "bias_constraint": null, "depth_multiplier": 1, "depthwise_initializer": {"class_name": "VarianceScaling", "config": {"scale": 1.0, "mode": "fan_avg", "distribution": "uniform", "seed": null}}, "depthwise_regularizer": null, "depthwise_constraint": null}, "inbound_nodes": [[["stage3/block4/relu_1x1conv_1", 0, 0, {}]]]}, {"name": "stage3/block4/bn_3x3dwconv", "class_name": "BatchNormalization", "config": {"name": "stage3/block4/bn_3x3dwconv", "trainable": true, "axis": -1, "momentum": 0.99, "epsilon": 0.001, "center": true, "scale": true, "beta_initializer": {"class_name": "Zeros", "config": {}}, "gamma_initializer": {"class_name": "Ones", "config": {}}, "moving_mean_initializer": {"class_name": "Zeros", "config": {}}, "moving_variance_initializer": {"class_name": "Ones", "config": {}}, "beta_regularizer": null, "gamma_regularizer": null, "beta_constraint": null, "gamma_constraint": null}, "inbound_nodes": [[["stage3/block4/3x3dwconv", 0, 0, {}]]]}, {"name": "stage3/block4/1x1conv_2", "class_name": "Conv2D", "config": {"name": "stage3/block4/1x1conv_2", "trainable": true, "filters": 232, "kernel_size": [1, 1], "strides": [1, 1], "padding": "same", "data_format": "channels_last", "dilation_rate": [1, 1], "activation": "linear", "use_bias": true, "kernel_initializer": {"class_name": "VarianceScaling", "config": {"scale": 1.0, "mode": "fan_avg", "distribution": "uniform", "seed": null}}, "bias_initializer": {"class_name": "Zeros", "config": {}}, "kernel_regularizer": null, "bias_regularizer": null, "activity_regularizer": null, "kernel_constraint": null, "bias_constraint": null}, "inbound_nodes": [[["stage3/block4/bn_3x3dwconv", 0, 0, {}]]]}, {"name": "stage3/block4/bn_1x1conv_2", "class_name": "BatchNormalization", "config": {"name": "stage3/block4/bn_1x1conv_2", "trainable": true, "axis": -1, "momentum": 0.99, "epsilon": 0.001, "center": true, "scale": true, "beta_initializer": {"class_name": "Zeros", "config": {}}, "gamma_initializer": {"class_name": "Ones", "config": {}}, "moving_mean_initializer": {"class_name": "Zeros", "config": {}}, "moving_variance_initializer": {"class_name": "Ones", "config": {}}, "beta_regularizer": null, "gamma_regularizer": null, "beta_constraint": null, "gamma_constraint": null}, "inbound_nodes": [[["stage3/block4/1x1conv_2", 0, 0, {}]]]}, {"name": "stage3/block4/relu_1x1conv_2", "class_name": "Activation", "config": {"name": "stage3/block4/relu_1x1conv_2", "trainable": true, "activation": "relu"}, "inbound_nodes": [[["stage3/block4/bn_1x1conv_2", 0, 0, {}]]]}, {"name": "stage3/block4/spl/sp0_slice", "class_name": "Lambda", "config": {"name": "stage3/block4/spl/sp0_slice", "trainable": true, "function": ["4wEAAAAAAAAAAQAAAAYAAAATAAAAcyAAAAB8AGQAZACFAmQAZACFAmQAZACFAmQBiACFAmYEGQBT\nACkCTukAAAAAqQApAdoBeikB2gJpcHICAAAA+iEuLi8uLi9rZXJhcy1zaHVmZmxlbmV0VjIvdXRp\nbHMucHnaCDxsYW1iZGE+FgAAAPMAAAAA\n", null, [232]], "function_type": "lambda", "output_shape": null, "output_shape_type": "raw", "arguments": {}}, "inbound_nodes": [[["stage3/block3/channel_shuffle", 0, 0, {}]]]}, {"name": "stage3/block4/concat_1", "class_name": "Concatenate", "config": {"name": "stage3/block4/concat_1", "trainable": true, "axis": -1}, "inbound_nodes": [[["stage3/block4/relu_1x1conv_2", 0, 0, {}], ["stage3/block4/spl/sp0_slice", 0, 0, {}]]]}, {"name": "stage3/block4/channel_shuffle", "class_name": "Lambda", "config": {"name": "stage3/block4/channel_shuffle", "trainable": true, "function": ["4wEAAAAAAAAABQAAAAcAAABDAAAAc1oAAAB8AGoAagGDAGQBZACFAhkAXAN9AX0CfQN8A2QCGgB9\nBHQCagN8AGQGfAF8AmQCfARnBYMCfQB0AmoEfABkB4MCfQB0AmoDfABkCHwBfAJ8A2cEgwJ9AHwA\nUwApCU7pAQAAAOkCAAAA6QAAAADpBAAAAOkDAAAA6f////8pBXIDAAAAcgEAAAByAgAAAHIEAAAA\ncgUAAAByBgAAACkF2gVzaGFwZdoHYXNfbGlzdNoBS9oHcmVzaGFwZdoScGVybXV0ZV9kaW1lbnNp\nb25zKQXaAXjaBmhlaWdodNoFd2lkdGjaCGNoYW5uZWxzWhJjaGFubmVsc19wZXJfc3BsaXSpAHIQ\nAAAA+iEuLi8uLi9rZXJhcy1zaHVmZmxlbmV0VjIvdXRpbHMucHnaD2NoYW5uZWxfc2h1ZmZsZRoA\nAABzDAAAAAABGAEIARYBDAEUAQ==\n", null, null], "function_type": "lambda", "output_shape": null, "output_shape_type": "raw", "arguments": {}}, "inbound_nodes": [[["stage3/block4/concat_1", 0, 0, {}]]]}, {"name": "stage3/block5/spl/sp1_slice", "class_name": "Lambda", "config": {"name": "stage3/block5/spl/sp1_slice", "trainable": true, "function": ["4wEAAAAAAAAAAQAAAAYAAAATAAAAcyAAAAB8AGQAZACFAmQAZACFAmQAZACFAogAZACFAmYEGQBT\nACkBTqkAKQHaAXopAdoCaXByAQAAAPohLi4vLi4va2VyYXMtc2h1ZmZsZW5ldFYyL3V0aWxzLnB5\n2gg8bGFtYmRhPhcAAADzAAAAAA==\n", null, [232]], "function_type": "lambda", "output_shape": null, "output_shape_type": "raw", "arguments": {}}, "inbound_nodes": [[["stage3/block4/channel_shuffle", 0, 0, {}]]]}, {"name": "stage3/block5/1x1conv_1", "class_name": "Conv2D", "config": {"name": "stage3/block5/1x1conv_1", "trainable": true, "filters": 232, "kernel_size": [1, 1], "strides": [1, 1], "padding": "same", "data_format": "channels_last", "dilation_rate": [1, 1], "activation": "linear", "use_bias": true, "kernel_initializer": {"class_name": "VarianceScaling", "config": {"scale": 1.0, "mode": "fan_avg", "distribution": "uniform", "seed": null}}, "bias_initializer": {"class_name": "Zeros", "config": {}}, "kernel_regularizer": null, "bias_regularizer": null, "activity_regularizer": null, "kernel_constraint": null, "bias_constraint": null}, "inbound_nodes": [[["stage3/block5/spl/sp1_slice", 0, 0, {}]]]}, {"name": "stage3/block5/bn_1x1conv_1", "class_name": "BatchNormalization", "config": {"name": "stage3/block5/bn_1x1conv_1", "trainable": true, "axis": -1, "momentum": 0.99, "epsilon": 0.001, "center": true, "scale": true, "beta_initializer": {"class_name": "Zeros", "config": {}}, "gamma_initializer": {"class_name": "Ones", "config": {}}, "moving_mean_initializer": {"class_name": "Zeros", "config": {}}, "moving_variance_initializer": {"class_name": "Ones", "config": {}}, "beta_regularizer": null, "gamma_regularizer": null, "beta_constraint": null, "gamma_constraint": null}, "inbound_nodes": [[["stage3/block5/1x1conv_1", 0, 0, {}]]]}, {"name": "stage3/block5/relu_1x1conv_1", "class_name": "Activation", "config": {"name": "stage3/block5/relu_1x1conv_1", "trainable": true, "activation": "relu"}, "inbound_nodes": [[["stage3/block5/bn_1x1conv_1", 0, 0, {}]]]}, {"name": "stage3/block5/3x3dwconv", "class_name": "DepthwiseConv2D", "config": {"name": "stage3/block5/3x3dwconv", "trainable": true, "kernel_size": [3, 3], "strides": [1, 1], "padding": "same", "data_format": "channels_last", "dilation_rate": [1, 1], "activation": "linear", "use_bias": true, "bias_initializer": {"class_name": "Zeros", "config": {}}, "bias_regularizer": null, "activity_regularizer": null, "bias_constraint": null, "depth_multiplier": 1, "depthwise_initializer": {"class_name": "VarianceScaling", "config": {"scale": 1.0, "mode": "fan_avg", "distribution": "uniform", "seed": null}}, "depthwise_regularizer": null, "depthwise_constraint": null}, "inbound_nodes": [[["stage3/block5/relu_1x1conv_1", 0, 0, {}]]]}, {"name": "stage3/block5/bn_3x3dwconv", "class_name": "BatchNormalization", "config": {"name": "stage3/block5/bn_3x3dwconv", "trainable": true, "axis": -1, "momentum": 0.99, "epsilon": 0.001, "center": true, "scale": true, "beta_initializer": {"class_name": "Zeros", "config": {}}, "gamma_initializer": {"class_name": "Ones", "config": {}}, "moving_mean_initializer": {"class_name": "Zeros", "config": {}}, "moving_variance_initializer": {"class_name": "Ones", "config": {}}, "beta_regularizer": null, "gamma_regularizer": null, "beta_constraint": null, "gamma_constraint": null}, "inbound_nodes": [[["stage3/block5/3x3dwconv", 0, 0, {}]]]}, {"name": "stage3/block5/1x1conv_2", "class_name": "Conv2D", "config": {"name": "stage3/block5/1x1conv_2", "trainable": true, "filters": 232, "kernel_size": [1, 1], "strides": [1, 1], "padding": "same", "data_format": "channels_last", "dilation_rate": [1, 1], "activation": "linear", "use_bias": true, "kernel_initializer": {"class_name": "VarianceScaling", "config": {"scale": 1.0, "mode": "fan_avg", "distribution": "uniform", "seed": null}}, "bias_initializer": {"class_name": "Zeros", "config": {}}, "kernel_regularizer": null, "bias_regularizer": null, "activity_regularizer": null, "kernel_constraint": null, "bias_constraint": null}, "inbound_nodes": [[["stage3/block5/bn_3x3dwconv", 0, 0, {}]]]}, {"name": "stage3/block5/bn_1x1conv_2", "class_name": "BatchNormalization", "config": {"name": "stage3/block5/bn_1x1conv_2", "trainable": true, "axis": -1, "momentum": 0.99, "epsilon": 0.001, "center": true, "scale": true, "beta_initializer": {"class_name": "Zeros", "config": {}}, "gamma_initializer": {"class_name": "Ones", "config": {}}, "moving_mean_initializer": {"class_name": "Zeros", "config": {}}, "moving_variance_initializer": {"class_name": "Ones", "config": {}}, "beta_regularizer": null, "gamma_regularizer": null, "beta_constraint": null, "gamma_constraint": null}, "inbound_nodes": [[["stage3/block5/1x1conv_2", 0, 0, {}]]]}, {"name": "stage3/block5/relu_1x1conv_2", "class_name": "Activation", "config": {"name": "stage3/block5/relu_1x1conv_2", "trainable": true, "activation": "relu"}, "inbound_nodes": [[["stage3/block5/bn_1x1conv_2", 0, 0, {}]]]}, {"name": "stage3/block5/spl/sp0_slice", "class_name": "Lambda", "config": {"name": "stage3/block5/spl/sp0_slice", "trainable": true, "function": ["4wEAAAAAAAAAAQAAAAYAAAATAAAAcyAAAAB8AGQAZACFAmQAZACFAmQAZACFAmQBiACFAmYEGQBT\nACkCTukAAAAAqQApAdoBeikB2gJpcHICAAAA+iEuLi8uLi9rZXJhcy1zaHVmZmxlbmV0VjIvdXRp\nbHMucHnaCDxsYW1iZGE+FgAAAPMAAAAA\n", null, [232]], "function_type": "lambda", "output_shape": null, "output_shape_type": "raw", "arguments": {}}, "inbound_nodes": [[["stage3/block4/channel_shuffle", 0, 0, {}]]]}, {"name": "stage3/block5/concat_1", "class_name": "Concatenate", "config": {"name": "stage3/block5/concat_1", "trainable": true, "axis": -1}, "inbound_nodes": [[["stage3/block5/relu_1x1conv_2", 0, 0, {}], ["stage3/block5/spl/sp0_slice", 0, 0, {}]]]}, {"name": "stage3/block5/channel_shuffle", "class_name": "Lambda", "config": {"name": "stage3/block5/channel_shuffle", "trainable": true, "function": ["4wEAAAAAAAAABQAAAAcAAABDAAAAc1oAAAB8AGoAagGDAGQBZACFAhkAXAN9AX0CfQN8A2QCGgB9\nBHQCagN8AGQGfAF8AmQCfARnBYMCfQB0AmoEfABkB4MCfQB0AmoDfABkCHwBfAJ8A2cEgwJ9AHwA\nUwApCU7pAQAAAOkCAAAA6QAAAADpBAAAAOkDAAAA6f////8pBXIDAAAAcgEAAAByAgAAAHIEAAAA\ncgUAAAByBgAAACkF2gVzaGFwZdoHYXNfbGlzdNoBS9oHcmVzaGFwZdoScGVybXV0ZV9kaW1lbnNp\nb25zKQXaAXjaBmhlaWdodNoFd2lkdGjaCGNoYW5uZWxzWhJjaGFubmVsc19wZXJfc3BsaXSpAHIQ\nAAAA+iEuLi8uLi9rZXJhcy1zaHVmZmxlbmV0VjIvdXRpbHMucHnaD2NoYW5uZWxfc2h1ZmZsZRoA\nAABzDAAAAAABGAEIARYBDAEUAQ==\n", null, null], "function_type": "lambda", "output_shape": null, "output_shape_type": "raw", "arguments": {}}, "inbound_nodes": [[["stage3/block5/concat_1", 0, 0, {}]]]}, {"name": "stage3/block6/spl/sp1_slice", "class_name": "Lambda", "config": {"name": "stage3/block6/spl/sp1_slice", "trainable": true, "function": ["4wEAAAAAAAAAAQAAAAYAAAATAAAAcyAAAAB8AGQAZACFAmQAZACFAmQAZACFAogAZACFAmYEGQBT\nACkBTqkAKQHaAXopAdoCaXByAQAAAPohLi4vLi4va2VyYXMtc2h1ZmZsZW5ldFYyL3V0aWxzLnB5\n2gg8bGFtYmRhPhcAAADzAAAAAA==\n", null, [232]], "function_type": "lambda", "output_shape": null, "output_shape_type": "raw", "arguments": {}}, "inbound_nodes": [[["stage3/block5/channel_shuffle", 0, 0, {}]]]}, {"name": "stage3/block6/1x1conv_1", "class_name": "Conv2D", "config": {"name": "stage3/block6/1x1conv_1", "trainable": true, "filters": 232, "kernel_size": [1, 1], "strides": [1, 1], "padding": "same", "data_format": "channels_last", "dilation_rate": [1, 1], "activation": "linear", "use_bias": true, "kernel_initializer": {"class_name": "VarianceScaling", "config": {"scale": 1.0, "mode": "fan_avg", "distribution": "uniform", "seed": null}}, "bias_initializer": {"class_name": "Zeros", "config": {}}, "kernel_regularizer": null, "bias_regularizer": null, "activity_regularizer": null, "kernel_constraint": null, "bias_constraint": null}, "inbound_nodes": [[["stage3/block6/spl/sp1_slice", 0, 0, {}]]]}, {"name": "stage3/block6/bn_1x1conv_1", "class_name": "BatchNormalization", "config": {"name": "stage3/block6/bn_1x1conv_1", "trainable": true, "axis": -1, "momentum": 0.99, "epsilon": 0.001, "center": true, "scale": true, "beta_initializer": {"class_name": "Zeros", "config": {}}, "gamma_initializer": {"class_name": "Ones", "config": {}}, "moving_mean_initializer": {"class_name": "Zeros", "config": {}}, "moving_variance_initializer": {"class_name": "Ones", "config": {}}, "beta_regularizer": null, "gamma_regularizer": null, "beta_constraint": null, "gamma_constraint": null}, "inbound_nodes": [[["stage3/block6/1x1conv_1", 0, 0, {}]]]}, {"name": "stage3/block6/relu_1x1conv_1", "class_name": "Activation", "config": {"name": "stage3/block6/relu_1x1conv_1", "trainable": true, "activation": "relu"}, "inbound_nodes": [[["stage3/block6/bn_1x1conv_1", 0, 0, {}]]]}, {"name": "stage3/block6/3x3dwconv", "class_name": "DepthwiseConv2D", "config": {"name": "stage3/block6/3x3dwconv", "trainable": true, "kernel_size": [3, 3], "strides": [1, 1], "padding": "same", "data_format": "channels_last", "dilation_rate": [1, 1], "activation": "linear", "use_bias": true, "bias_initializer": {"class_name": "Zeros", "config": {}}, "bias_regularizer": null, "activity_regularizer": null, "bias_constraint": null, "depth_multiplier": 1, "depthwise_initializer": {"class_name": "VarianceScaling", "config": {"scale": 1.0, "mode": "fan_avg", "distribution": "uniform", "seed": null}}, "depthwise_regularizer": null, "depthwise_constraint": null}, "inbound_nodes": [[["stage3/block6/relu_1x1conv_1", 0, 0, {}]]]}, {"name": "stage3/block6/bn_3x3dwconv", "class_name": "BatchNormalization", "config": {"name": "stage3/block6/bn_3x3dwconv", "trainable": true, "axis": -1, "momentum": 0.99, "epsilon": 0.001, "center": true, "scale": true, "beta_initializer": {"class_name": "Zeros", "config": {}}, "gamma_initializer": {"class_name": "Ones", "config": {}}, "moving_mean_initializer": {"class_name": "Zeros", "config": {}}, "moving_variance_initializer": {"class_name": "Ones", "config": {}}, "beta_regularizer": null, "gamma_regularizer": null, "beta_constraint": null, "gamma_constraint": null}, "inbound_nodes": [[["stage3/block6/3x3dwconv", 0, 0, {}]]]}, {"name": "stage3/block6/1x1conv_2", "class_name": "Conv2D", "config": {"name": "stage3/block6/1x1conv_2", "trainable": true, "filters": 232, "kernel_size": [1, 1], "strides": [1, 1], "padding": "same", "data_format": "channels_last", "dilation_rate": [1, 1], "activation": "linear", "use_bias": true, "kernel_initializer": {"class_name": "VarianceScaling", "config": {"scale": 1.0, "mode": "fan_avg", "distribution": "uniform", "seed": null}}, "bias_initializer": {"class_name": "Zeros", "config": {}}, "kernel_regularizer": null, "bias_regularizer": null, "activity_regularizer": null, "kernel_constraint": null, "bias_constraint": null}, "inbound_nodes": [[["stage3/block6/bn_3x3dwconv", 0, 0, {}]]]}, {"name": "stage3/block6/bn_1x1conv_2", "class_name": "BatchNormalization", "config": {"name": "stage3/block6/bn_1x1conv_2", "trainable": true, "axis": -1, "momentum": 0.99, "epsilon": 0.001, "center": true, "scale": true, "beta_initializer": {"class_name": "Zeros", "config": {}}, "gamma_initializer": {"class_name": "Ones", "config": {}}, "moving_mean_initializer": {"class_name": "Zeros", "config": {}}, "moving_variance_initializer": {"class_name": "Ones", "config": {}}, "beta_regularizer": null, "gamma_regularizer": null, "beta_constraint": null, "gamma_constraint": null}, "inbound_nodes": [[["stage3/block6/1x1conv_2", 0, 0, {}]]]}, {"name": "stage3/block6/relu_1x1conv_2", "class_name": "Activation", "config": {"name": "stage3/block6/relu_1x1conv_2", "trainable": true, "activation": "relu"}, "inbound_nodes": [[["stage3/block6/bn_1x1conv_2", 0, 0, {}]]]}, {"name": "stage3/block6/spl/sp0_slice", "class_name": "Lambda", "config": {"name": "stage3/block6/spl/sp0_slice", "trainable": true, "function": ["4wEAAAAAAAAAAQAAAAYAAAATAAAAcyAAAAB8AGQAZACFAmQAZACFAmQAZACFAmQBiACFAmYEGQBT\nACkCTukAAAAAqQApAdoBeikB2gJpcHICAAAA+iEuLi8uLi9rZXJhcy1zaHVmZmxlbmV0VjIvdXRp\nbHMucHnaCDxsYW1iZGE+FgAAAPMAAAAA\n", null, [232]], "function_type": "lambda", "output_shape": null, "output_shape_type": "raw", "arguments": {}}, "inbound_nodes": [[["stage3/block5/channel_shuffle", 0, 0, {}]]]}, {"name": "stage3/block6/concat_1", "class_name": "Concatenate", "config": {"name": "stage3/block6/concat_1", "trainable": true, "axis": -1}, "inbound_nodes": [[["stage3/block6/relu_1x1conv_2", 0, 0, {}], ["stage3/block6/spl/sp0_slice", 0, 0, {}]]]}, {"name": "stage3/block6/channel_shuffle", "class_name": "Lambda", "config": {"name": "stage3/block6/channel_shuffle", "trainable": true, "function": ["4wEAAAAAAAAABQAAAAcAAABDAAAAc1oAAAB8AGoAagGDAGQBZACFAhkAXAN9AX0CfQN8A2QCGgB9\nBHQCagN8AGQGfAF8AmQCfARnBYMCfQB0AmoEfABkB4MCfQB0AmoDfABkCHwBfAJ8A2cEgwJ9AHwA\nUwApCU7pAQAAAOkCAAAA6QAAAADpBAAAAOkDAAAA6f////8pBXIDAAAAcgEAAAByAgAAAHIEAAAA\ncgUAAAByBgAAACkF2gVzaGFwZdoHYXNfbGlzdNoBS9oHcmVzaGFwZdoScGVybXV0ZV9kaW1lbnNp\nb25zKQXaAXjaBmhlaWdodNoFd2lkdGjaCGNoYW5uZWxzWhJjaGFubmVsc19wZXJfc3BsaXSpAHIQ\nAAAA+iEuLi8uLi9rZXJhcy1zaHVmZmxlbmV0VjIvdXRpbHMucHnaD2NoYW5uZWxfc2h1ZmZsZRoA\nAABzDAAAAAABGAEIARYBDAEUAQ==\n", null, null], "function_type": "lambda", "output_shape": null, "output_shape_type": "raw", "arguments": {}}, "inbound_nodes": [[["stage3/block6/concat_1", 0, 0, {}]]]}, {"name": "stage3/block7/spl/sp1_slice", "class_name": "Lambda", "config": {"name": "stage3/block7/spl/sp1_slice", "trainable": true, "function": ["4wEAAAAAAAAAAQAAAAYAAAATAAAAcyAAAAB8AGQAZACFAmQAZACFAmQAZACFAogAZACFAmYEGQBT\nACkBTqkAKQHaAXopAdoCaXByAQAAAPohLi4vLi4va2VyYXMtc2h1ZmZsZW5ldFYyL3V0aWxzLnB5\n2gg8bGFtYmRhPhcAAADzAAAAAA==\n", null, [232]], "function_type": "lambda", "output_shape": null, "output_shape_type": "raw", "arguments": {}}, "inbound_nodes": [[["stage3/block6/channel_shuffle", 0, 0, {}]]]}, {"name": "stage3/block7/1x1conv_1", "class_name": "Conv2D", "config": {"name": "stage3/block7/1x1conv_1", "trainable": true, "filters": 232, "kernel_size": [1, 1], "strides": [1, 1], "padding": "same", "data_format": "channels_last", "dilation_rate": [1, 1], "activation": "linear", "use_bias": true, "kernel_initializer": {"class_name": "VarianceScaling", "config": {"scale": 1.0, "mode": "fan_avg", "distribution": "uniform", "seed": null}}, "bias_initializer": {"class_name": "Zeros", "config": {}}, "kernel_regularizer": null, "bias_regularizer": null, "activity_regularizer": null, "kernel_constraint": null, "bias_constraint": null}, "inbound_nodes": [[["stage3/block7/spl/sp1_slice", 0, 0, {}]]]}, {"name": "stage3/block7/bn_1x1conv_1", "class_name": "BatchNormalization", "config": {"name": "stage3/block7/bn_1x1conv_1", "trainable": true, "axis": -1, "momentum": 0.99, "epsilon": 0.001, "center": true, "scale": true, "beta_initializer": {"class_name": "Zeros", "config": {}}, "gamma_initializer": {"class_name": "Ones", "config": {}}, "moving_mean_initializer": {"class_name": "Zeros", "config": {}}, "moving_variance_initializer": {"class_name": "Ones", "config": {}}, "beta_regularizer": null, "gamma_regularizer": null, "beta_constraint": null, "gamma_constraint": null}, "inbound_nodes": [[["stage3/block7/1x1conv_1", 0, 0, {}]]]}, {"name": "stage3/block7/relu_1x1conv_1", "class_name": "Activation", "config": {"name": "stage3/block7/relu_1x1conv_1", "trainable": true, "activation": "relu"}, "inbound_nodes": [[["stage3/block7/bn_1x1conv_1", 0, 0, {}]]]}, {"name": "stage3/block7/3x3dwconv", "class_name": "DepthwiseConv2D", "config": {"name": "stage3/block7/3x3dwconv", "trainable": true, "kernel_size": [3, 3], "strides": [1, 1], "padding": "same", "data_format": "channels_last", "dilation_rate": [1, 1], "activation": "linear", "use_bias": true, "bias_initializer": {"class_name": "Zeros", "config": {}}, "bias_regularizer": null, "activity_regularizer": null, "bias_constraint": null, "depth_multiplier": 1, "depthwise_initializer": {"class_name": "VarianceScaling", "config": {"scale": 1.0, "mode": "fan_avg", "distribution": "uniform", "seed": null}}, "depthwise_regularizer": null, "depthwise_constraint": null}, "inbound_nodes": [[["stage3/block7/relu_1x1conv_1", 0, 0, {}]]]}, {"name": "stage3/block7/bn_3x3dwconv", "class_name": "BatchNormalization", "config": {"name": "stage3/block7/bn_3x3dwconv", "trainable": true, "axis": -1, "momentum": 0.99, "epsilon": 0.001, "center": true, "scale": true, "beta_initializer": {"class_name": "Zeros", "config": {}}, "gamma_initializer": {"class_name": "Ones", "config": {}}, "moving_mean_initializer": {"class_name": "Zeros", "config": {}}, "moving_variance_initializer": {"class_name": "Ones", "config": {}}, "beta_regularizer": null, "gamma_regularizer": null, "beta_constraint": null, "gamma_constraint": null}, "inbound_nodes": [[["stage3/block7/3x3dwconv", 0, 0, {}]]]}, {"name": "stage3/block7/1x1conv_2", "class_name": "Conv2D", "config": {"name": "stage3/block7/1x1conv_2", "trainable": true, "filters": 232, "kernel_size": [1, 1], "strides": [1, 1], "padding": "same", "data_format": "channels_last", "dilation_rate": [1, 1], "activation": "linear", "use_bias": true, "kernel_initializer": {"class_name": "VarianceScaling", "config": {"scale": 1.0, "mode": "fan_avg", "distribution": "uniform", "seed": null}}, "bias_initializer": {"class_name": "Zeros", "config": {}}, "kernel_regularizer": null, "bias_regularizer": null, "activity_regularizer": null, "kernel_constraint": null, "bias_constraint": null}, "inbound_nodes": [[["stage3/block7/bn_3x3dwconv", 0, 0, {}]]]}, {"name": "stage3/block7/bn_1x1conv_2", "class_name": "BatchNormalization", "config": {"name": "stage3/block7/bn_1x1conv_2", "trainable": true, "axis": -1, "momentum": 0.99, "epsilon": 0.001, "center": true, "scale": true, "beta_initializer": {"class_name": "Zeros", "config": {}}, "gamma_initializer": {"class_name": "Ones", "config": {}}, "moving_mean_initializer": {"class_name": "Zeros", "config": {}}, "moving_variance_initializer": {"class_name": "Ones", "config": {}}, "beta_regularizer": null, "gamma_regularizer": null, "beta_constraint": null, "gamma_constraint": null}, "inbound_nodes": [[["stage3/block7/1x1conv_2", 0, 0, {}]]]}, {"name": "stage3/block7/relu_1x1conv_2", "class_name": "Activation", "config": {"name": "stage3/block7/relu_1x1conv_2", "trainable": true, "activation": "relu"}, "inbound_nodes": [[["stage3/block7/bn_1x1conv_2", 0, 0, {}]]]}, {"name": "stage3/block7/spl/sp0_slice", "class_name": "Lambda", "config": {"name": "stage3/block7/spl/sp0_slice", "trainable": true, "function": ["4wEAAAAAAAAAAQAAAAYAAAATAAAAcyAAAAB8AGQAZACFAmQAZACFAmQAZACFAmQBiACFAmYEGQBT\nACkCTukAAAAAqQApAdoBeikB2gJpcHICAAAA+iEuLi8uLi9rZXJhcy1zaHVmZmxlbmV0VjIvdXRp\nbHMucHnaCDxsYW1iZGE+FgAAAPMAAAAA\n", null, [232]], "function_type": "lambda", "output_shape": null, "output_shape_type": "raw", "arguments": {}}, "inbound_nodes": [[["stage3/block6/channel_shuffle", 0, 0, {}]]]}, {"name": "stage3/block7/concat_1", "class_name": "Concatenate", "config": {"name": "stage3/block7/concat_1", "trainable": true, "axis": -1}, "inbound_nodes": [[["stage3/block7/relu_1x1conv_2", 0, 0, {}], ["stage3/block7/spl/sp0_slice", 0, 0, {}]]]}, {"name": "stage3/block7/channel_shuffle", "class_name": "Lambda", "config": {"name": "stage3/block7/channel_shuffle", "trainable": true, "function": ["4wEAAAAAAAAABQAAAAcAAABDAAAAc1oAAAB8AGoAagGDAGQBZACFAhkAXAN9AX0CfQN8A2QCGgB9\nBHQCagN8AGQGfAF8AmQCfARnBYMCfQB0AmoEfABkB4MCfQB0AmoDfABkCHwBfAJ8A2cEgwJ9AHwA\nUwApCU7pAQAAAOkCAAAA6QAAAADpBAAAAOkDAAAA6f////8pBXIDAAAAcgEAAAByAgAAAHIEAAAA\ncgUAAAByBgAAACkF2gVzaGFwZdoHYXNfbGlzdNoBS9oHcmVzaGFwZdoScGVybXV0ZV9kaW1lbnNp\nb25zKQXaAXjaBmhlaWdodNoFd2lkdGjaCGNoYW5uZWxzWhJjaGFubmVsc19wZXJfc3BsaXSpAHIQ\nAAAA+iEuLi8uLi9rZXJhcy1zaHVmZmxlbmV0VjIvdXRpbHMucHnaD2NoYW5uZWxfc2h1ZmZsZRoA\nAABzDAAAAAABGAEIARYBDAEUAQ==\n", null, null], "function_type": "lambda", "output_shape": null, "output_shape_type": "raw", "arguments": {}}, "inbound_nodes": [[["stage3/block7/concat_1", 0, 0, {}]]]}, {"name": "stage3/block8/spl/sp1_slice", "class_name": "Lambda", "config": {"name": "stage3/block8/spl/sp1_slice", "trainable": true, "function": ["4wEAAAAAAAAAAQAAAAYAAAATAAAAcyAAAAB8AGQAZACFAmQAZACFAmQAZACFAogAZACFAmYEGQBT\nACkBTqkAKQHaAXopAdoCaXByAQAAAPohLi4vLi4va2VyYXMtc2h1ZmZsZW5ldFYyL3V0aWxzLnB5\n2gg8bGFtYmRhPhcAAADzAAAAAA==\n", null, [232]], "function_type": "lambda", "output_shape": null, "output_shape_type": "raw", "arguments": {}}, "inbound_nodes": [[["stage3/block7/channel_shuffle", 0, 0, {}]]]}, {"name": "stage3/block8/1x1conv_1", "class_name": "Conv2D", "config": {"name": "stage3/block8/1x1conv_1", "trainable": true, "filters": 232, "kernel_size": [1, 1], "strides": [1, 1], "padding": "same", "data_format": "channels_last", "dilation_rate": [1, 1], "activation": "linear", "use_bias": true, "kernel_initializer": {"class_name": "VarianceScaling", "config": {"scale": 1.0, "mode": "fan_avg", "distribution": "uniform", "seed": null}}, "bias_initializer": {"class_name": "Zeros", "config": {}}, "kernel_regularizer": null, "bias_regularizer": null, "activity_regularizer": null, "kernel_constraint": null, "bias_constraint": null}, "inbound_nodes": [[["stage3/block8/spl/sp1_slice", 0, 0, {}]]]}, {"name": "stage3/block8/bn_1x1conv_1", "class_name": "BatchNormalization", "config": {"name": "stage3/block8/bn_1x1conv_1", "trainable": true, "axis": -1, "momentum": 0.99, "epsilon": 0.001, "center": true, "scale": true, "beta_initializer": {"class_name": "Zeros", "config": {}}, "gamma_initializer": {"class_name": "Ones", "config": {}}, "moving_mean_initializer": {"class_name": "Zeros", "config": {}}, "moving_variance_initializer": {"class_name": "Ones", "config": {}}, "beta_regularizer": null, "gamma_regularizer": null, "beta_constraint": null, "gamma_constraint": null}, "inbound_nodes": [[["stage3/block8/1x1conv_1", 0, 0, {}]]]}, {"name": "stage3/block8/relu_1x1conv_1", "class_name": "Activation", "config": {"name": "stage3/block8/relu_1x1conv_1", "trainable": true, "activation": "relu"}, "inbound_nodes": [[["stage3/block8/bn_1x1conv_1", 0, 0, {}]]]}, {"name": "stage3/block8/3x3dwconv", "class_name": "DepthwiseConv2D", "config": {"name": "stage3/block8/3x3dwconv", "trainable": true, "kernel_size": [3, 3], "strides": [1, 1], "padding": "same", "data_format": "channels_last", "dilation_rate": [1, 1], "activation": "linear", "use_bias": true, "bias_initializer": {"class_name": "Zeros", "config": {}}, "bias_regularizer": null, "activity_regularizer": null, "bias_constraint": null, "depth_multiplier": 1, "depthwise_initializer": {"class_name": "VarianceScaling", "config": {"scale": 1.0, "mode": "fan_avg", "distribution": "uniform", "seed": null}}, "depthwise_regularizer": null, "depthwise_constraint": null}, "inbound_nodes": [[["stage3/block8/relu_1x1conv_1", 0, 0, {}]]]}, {"name": "stage3/block8/bn_3x3dwconv", "class_name": "BatchNormalization", "config": {"name": "stage3/block8/bn_3x3dwconv", "trainable": true, "axis": -1, "momentum": 0.99, "epsilon": 0.001, "center": true, "scale": true, "beta_initializer": {"class_name": "Zeros", "config": {}}, "gamma_initializer": {"class_name": "Ones", "config": {}}, "moving_mean_initializer": {"class_name": "Zeros", "config": {}}, "moving_variance_initializer": {"class_name": "Ones", "config": {}}, "beta_regularizer": null, "gamma_regularizer": null, "beta_constraint": null, "gamma_constraint": null}, "inbound_nodes": [[["stage3/block8/3x3dwconv", 0, 0, {}]]]}, {"name": "stage3/block8/1x1conv_2", "class_name": "Conv2D", "config": {"name": "stage3/block8/1x1conv_2", "trainable": true, "filters": 232, "kernel_size": [1, 1], "strides": [1, 1], "padding": "same", "data_format": "channels_last", "dilation_rate": [1, 1], "activation": "linear", "use_bias": true, "kernel_initializer": {"class_name": "VarianceScaling", "config": {"scale": 1.0, "mode": "fan_avg", "distribution": "uniform", "seed": null}}, "bias_initializer": {"class_name": "Zeros", "config": {}}, "kernel_regularizer": null, "bias_regularizer": null, "activity_regularizer": null, "kernel_constraint": null, "bias_constraint": null}, "inbound_nodes": [[["stage3/block8/bn_3x3dwconv", 0, 0, {}]]]}, {"name": "stage3/block8/bn_1x1conv_2", "class_name": "BatchNormalization", "config": {"name": "stage3/block8/bn_1x1conv_2", "trainable": true, "axis": -1, "momentum": 0.99, "epsilon": 0.001, "center": true, "scale": true, "beta_initializer": {"class_name": "Zeros", "config": {}}, "gamma_initializer": {"class_name": "Ones", "config": {}}, "moving_mean_initializer": {"class_name": "Zeros", "config": {}}, "moving_variance_initializer": {"class_name": "Ones", "config": {}}, "beta_regularizer": null, "gamma_regularizer": null, "beta_constraint": null, "gamma_constraint": null}, "inbound_nodes": [[["stage3/block8/1x1conv_2", 0, 0, {}]]]}, {"name": "stage3/block8/relu_1x1conv_2", "class_name": "Activation", "config": {"name": "stage3/block8/relu_1x1conv_2", "trainable": true, "activation": "relu"}, "inbound_nodes": [[["stage3/block8/bn_1x1conv_2", 0, 0, {}]]]}, {"name": "stage3/block8/spl/sp0_slice", "class_name": "Lambda", "config": {"name": "stage3/block8/spl/sp0_slice", "trainable": true, "function": ["4wEAAAAAAAAAAQAAAAYAAAATAAAAcyAAAAB8AGQAZACFAmQAZACFAmQAZACFAmQBiACFAmYEGQBT\nACkCTukAAAAAqQApAdoBeikB2gJpcHICAAAA+iEuLi8uLi9rZXJhcy1zaHVmZmxlbmV0VjIvdXRp\nbHMucHnaCDxsYW1iZGE+FgAAAPMAAAAA\n", null, [232]], "function_type": "lambda", "output_shape": null, "output_shape_type": "raw", "arguments": {}}, "inbound_nodes": [[["stage3/block7/channel_shuffle", 0, 0, {}]]]}, {"name": "stage3/block8/concat_1", "class_name": "Concatenate", "config": {"name": "stage3/block8/concat_1", "trainable": true, "axis": -1}, "inbound_nodes": [[["stage3/block8/relu_1x1conv_2", 0, 0, {}], ["stage3/block8/spl/sp0_slice", 0, 0, {}]]]}, {"name": "stage3/block8/channel_shuffle", "class_name": "Lambda", "config": {"name": "stage3/block8/channel_shuffle", "trainable": true, "function": ["4wEAAAAAAAAABQAAAAcAAABDAAAAc1oAAAB8AGoAagGDAGQBZACFAhkAXAN9AX0CfQN8A2QCGgB9\nBHQCagN8AGQGfAF8AmQCfARnBYMCfQB0AmoEfABkB4MCfQB0AmoDfABkCHwBfAJ8A2cEgwJ9AHwA\nUwApCU7pAQAAAOkCAAAA6QAAAADpBAAAAOkDAAAA6f////8pBXIDAAAAcgEAAAByAgAAAHIEAAAA\ncgUAAAByBgAAACkF2gVzaGFwZdoHYXNfbGlzdNoBS9oHcmVzaGFwZdoScGVybXV0ZV9kaW1lbnNp\nb25zKQXaAXjaBmhlaWdodNoFd2lkdGjaCGNoYW5uZWxzWhJjaGFubmVsc19wZXJfc3BsaXSpAHIQ\nAAAA+iEuLi8uLi9rZXJhcy1zaHVmZmxlbmV0VjIvdXRpbHMucHnaD2NoYW5uZWxfc2h1ZmZsZRoA\nAABzDAAAAAABGAEIARYBDAEUAQ==\n", null, null], "function_type": "lambda", "output_shape": null, "output_shape_type": "raw", "arguments": {}}, "inbound_nodes": [[["stage3/block8/concat_1", 0, 0, {}]]]}, {"name": "stage4/block1/1x1conv_1", "class_name": "Conv2D", "config": {"name": "stage4/block1/1x1conv_1", "trainable": true, "filters": 464, "kernel_size": [1, 1], "strides": [1, 1], "padding": "same", "data_format": "channels_last", "dilation_rate": [1, 1], "activation": "linear", "use_bias": true, "kernel_initializer": {"class_name": "VarianceScaling", "config": {"scale": 1.0, "mode": "fan_avg", "distribution": "uniform", "seed": null}}, "bias_initializer": {"class_name": "Zeros", "config": {}}, "kernel_regularizer": null, "bias_regularizer": null, "activity_regularizer": null, "kernel_constraint": null, "bias_constraint": null}, "inbound_nodes": [[["stage3/block8/channel_shuffle", 0, 0, {}]]]}, {"name": "stage4/block1/bn_1x1conv_1", "class_name": "BatchNormalization", "config": {"name": "stage4/block1/bn_1x1conv_1", "trainable": true, "axis": -1, "momentum": 0.99, "epsilon": 0.001, "center": true, "scale": true, "beta_initializer": {"class_name": "Zeros", "config": {}}, "gamma_initializer": {"class_name": "Ones", "config": {}}, "moving_mean_initializer": {"class_name": "Zeros", "config": {}}, "moving_variance_initializer": {"class_name": "Ones", "config": {}}, "beta_regularizer": null, "gamma_regularizer": null, "beta_constraint": null, "gamma_constraint": null}, "inbound_nodes": [[["stage4/block1/1x1conv_1", 0, 0, {}]]]}, {"name": "stage4/block1/relu_1x1conv_1", "class_name": "Activation", "config": {"name": "stage4/block1/relu_1x1conv_1", "trainable": true, "activation": "relu"}, "inbound_nodes": [[["stage4/block1/bn_1x1conv_1", 0, 0, {}]]]}, {"name": "stage4/block1/3x3dwconv", "class_name": "DepthwiseConv2D", "config": {"name": "stage4/block1/3x3dwconv", "trainable": true, "kernel_size": [3, 3], "strides": [2, 2], "padding": "same", "data_format": "channels_last", "dilation_rate": [1, 1], "activation": "linear", "use_bias": true, "bias_initializer": {"class_name": "Zeros", "config": {}}, "bias_regularizer": null, "activity_regularizer": null, "bias_constraint": null, "depth_multiplier": 1, "depthwise_initializer": {"class_name": "VarianceScaling", "config": {"scale": 1.0, "mode": "fan_avg", "distribution": "uniform", "seed": null}}, "depthwise_regularizer": null, "depthwise_constraint": null}, "inbound_nodes": [[["stage4/block1/relu_1x1conv_1", 0, 0, {}]]]}, {"name": "stage4/block1/3x3dwconv_2", "class_name": "DepthwiseConv2D", "config": {"name": "stage4/block1/3x3dwconv_2", "trainable": true, "kernel_size": [3, 3], "strides": [2, 2], "padding": "same", "data_format": "channels_last", "dilation_rate": [1, 1], "activation": "linear", "use_bias": true, "bias_initializer": {"class_name": "Zeros", "config": {}}, "bias_regularizer": null, "activity_regularizer": null, "bias_constraint": null, "depth_multiplier": 1, "depthwise_initializer": {"class_name": "VarianceScaling", "config": {"scale": 1.0, "mode": "fan_avg", "distribution": "uniform", "seed": null}}, "depthwise_regularizer": null, "depthwise_constraint": null}, "inbound_nodes": [[["stage3/block8/channel_shuffle", 0, 0, {}]]]}, {"name": "stage4/block1/bn_3x3dwconv", "class_name": "BatchNormalization", "config": {"name": "stage4/block1/bn_3x3dwconv", "trainable": true, "axis": -1, "momentum": 0.99, "epsilon": 0.001, "center": true, "scale": true, "beta_initializer": {"class_name": "Zeros", "config": {}}, "gamma_initializer": {"class_name": "Ones", "config": {}}, "moving_mean_initializer": {"class_name": "Zeros", "config": {}}, "moving_variance_initializer": {"class_name": "Ones", "config": {}}, "beta_regularizer": null, "gamma_regularizer": null, "beta_constraint": null, "gamma_constraint": null}, "inbound_nodes": [[["stage4/block1/3x3dwconv", 0, 0, {}]]]}, {"name": "stage4/block1/bn_3x3dwconv_2", "class_name": "BatchNormalization", "config": {"name": "stage4/block1/bn_3x3dwconv_2", "trainable": true, "axis": -1, "momentum": 0.99, "epsilon": 0.001, "center": true, "scale": true, "beta_initializer": {"class_name": "Zeros", "config": {}}, "gamma_initializer": {"class_name": "Ones", "config": {}}, "moving_mean_initializer": {"class_name": "Zeros", "config": {}}, "moving_variance_initializer": {"class_name": "Ones", "config": {}}, "beta_regularizer": null, "gamma_regularizer": null, "beta_constraint": null, "gamma_constraint": null}, "inbound_nodes": [[["stage4/block1/3x3dwconv_2", 0, 0, {}]]]}, {"name": "stage4/block1/1x1conv_2", "class_name": "Conv2D", "config": {"name": "stage4/block1/1x1conv_2", "trainable": true, "filters": 464, "kernel_size": [1, 1], "strides": [1, 1], "padding": "same", "data_format": "channels_last", "dilation_rate": [1, 1], "activation": "linear", "use_bias": true, "kernel_initializer": {"class_name": "VarianceScaling", "config": {"scale": 1.0, "mode": "fan_avg", "distribution": "uniform", "seed": null}}, "bias_initializer": {"class_name": "Zeros", "config": {}}, "kernel_regularizer": null, "bias_regularizer": null, "activity_regularizer": null, "kernel_constraint": null, "bias_constraint": null}, "inbound_nodes": [[["stage4/block1/bn_3x3dwconv", 0, 0, {}]]]}, {"name": "stage4/block1/1x1_conv_3", "class_name": "Conv2D", "config": {"name": "stage4/block1/1x1_conv_3", "trainable": true, "filters": 464, "kernel_size": [1, 1], "strides": [1, 1], "padding": "same", "data_format": "channels_last", "dilation_rate": [1, 1], "activation": "linear", "use_bias": true, "kernel_initializer": {"class_name": "VarianceScaling", "config": {"scale": 1.0, "mode": "fan_avg", "distribution": "uniform", "seed": null}}, "bias_initializer": {"class_name": "Zeros", "config": {}}, "kernel_regularizer": null, "bias_regularizer": null, "activity_regularizer": null, "kernel_constraint": null, "bias_constraint": null}, "inbound_nodes": [[["stage4/block1/bn_3x3dwconv_2", 0, 0, {}]]]}, {"name": "stage4/block1/bn_1x1conv_2", "class_name": "BatchNormalization", "config": {"name": "stage4/block1/bn_1x1conv_2", "trainable": true, "axis": -1, "momentum": 0.99, "epsilon": 0.001, "center": true, "scale": true, "beta_initializer": {"class_name": "Zeros", "config": {}}, "gamma_initializer": {"class_name": "Ones", "config": {}}, "moving_mean_initializer": {"class_name": "Zeros", "config": {}}, "moving_variance_initializer": {"class_name": "Ones", "config": {}}, "beta_regularizer": null, "gamma_regularizer": null, "beta_constraint": null, "gamma_constraint": null}, "inbound_nodes": [[["stage4/block1/1x1conv_2", 0, 0, {}]]]}, {"name": "stage4/block1/bn_1x1conv_3", "class_name": "BatchNormalization", "config": {"name": "stage4/block1/bn_1x1conv_3", "trainable": true, "axis": -1, "momentum": 0.99, "epsilon": 0.001, "center": true, "scale": true, "beta_initializer": {"class_name": "Zeros", "config": {}}, "gamma_initializer": {"class_name": "Ones", "config": {}}, "moving_mean_initializer": {"class_name": "Zeros", "config": {}}, "moving_variance_initializer": {"class_name": "Ones", "config": {}}, "beta_regularizer": null, "gamma_regularizer": null, "beta_constraint": null, "gamma_constraint": null}, "inbound_nodes": [[["stage4/block1/1x1_conv_3", 0, 0, {}]]]}, {"name": "stage4/block1/relu_1x1conv_2", "class_name": "Activation", "config": {"name": "stage4/block1/relu_1x1conv_2", "trainable": true, "activation": "relu"}, "inbound_nodes": [[["stage4/block1/bn_1x1conv_2", 0, 0, {}]]]}, {"name": "stage4/block1/relu_1x1conv_3", "class_name": "Activation", "config": {"name": "stage4/block1/relu_1x1conv_3", "trainable": true, "activation": "relu"}, "inbound_nodes": [[["stage4/block1/bn_1x1conv_3", 0, 0, {}]]]}, {"name": "stage4/block1/concat_2", "class_name": "Concatenate", "config": {"name": "stage4/block1/concat_2", "trainable": true, "axis": -1}, "inbound_nodes": [[["stage4/block1/relu_1x1conv_2", 0, 0, {}], ["stage4/block1/relu_1x1conv_3", 0, 0, {}]]]}, {"name": "stage4/block1/channel_shuffle", "class_name": "Lambda", "config": {"name": "stage4/block1/channel_shuffle", "trainable": true, "function": ["4wEAAAAAAAAABQAAAAcAAABDAAAAc1oAAAB8AGoAagGDAGQBZACFAhkAXAN9AX0CfQN8A2QCGgB9\nBHQCagN8AGQGfAF8AmQCfARnBYMCfQB0AmoEfABkB4MCfQB0AmoDfABkCHwBfAJ8A2cEgwJ9AHwA\nUwApCU7pAQAAAOkCAAAA6QAAAADpBAAAAOkDAAAA6f////8pBXIDAAAAcgEAAAByAgAAAHIEAAAA\ncgUAAAByBgAAACkF2gVzaGFwZdoHYXNfbGlzdNoBS9oHcmVzaGFwZdoScGVybXV0ZV9kaW1lbnNp\nb25zKQXaAXjaBmhlaWdodNoFd2lkdGjaCGNoYW5uZWxzWhJjaGFubmVsc19wZXJfc3BsaXSpAHIQ\nAAAA+iEuLi8uLi9rZXJhcy1zaHVmZmxlbmV0VjIvdXRpbHMucHnaD2NoYW5uZWxfc2h1ZmZsZRoA\nAABzDAAAAAABGAEIARYBDAEUAQ==\n", null, null], "function_type": "lambda", "output_shape": null, "output_shape_type": "raw", "arguments": {}}, "inbound_nodes": [[["stage4/block1/concat_2", 0, 0, {}]]]}, {"name": "stage4/block2/spl/sp1_slice", "class_name": "Lambda", "config": {"name": "stage4/block2/spl/sp1_slice", "trainable": true, "function": ["4wEAAAAAAAAAAQAAAAYAAAATAAAAcyAAAAB8AGQAZACFAmQAZACFAmQAZACFAogAZACFAmYEGQBT\nACkBTqkAKQHaAXopAdoCaXByAQAAAPohLi4vLi4va2VyYXMtc2h1ZmZsZW5ldFYyL3V0aWxzLnB5\n2gg8bGFtYmRhPhcAAADzAAAAAA==\n", null, [464]], "function_type": "lambda", "output_shape": null, "output_shape_type": "raw", "arguments": {}}, "inbound_nodes": [[["stage4/block1/channel_shuffle", 0, 0, {}]]]}, {"name": "stage4/block2/1x1conv_1", "class_name": "Conv2D", "config": {"name": "stage4/block2/1x1conv_1", "trainable": true, "filters": 464, "kernel_size": [1, 1], "strides": [1, 1], "padding": "same", "data_format": "channels_last", "dilation_rate": [1, 1], "activation": "linear", "use_bias": true, "kernel_initializer": {"class_name": "VarianceScaling", "config": {"scale": 1.0, "mode": "fan_avg", "distribution": "uniform", "seed": null}}, "bias_initializer": {"class_name": "Zeros", "config": {}}, "kernel_regularizer": null, "bias_regularizer": null, "activity_regularizer": null, "kernel_constraint": null, "bias_constraint": null}, "inbound_nodes": [[["stage4/block2/spl/sp1_slice", 0, 0, {}]]]}, {"name": "stage4/block2/bn_1x1conv_1", "class_name": "BatchNormalization", "config": {"name": "stage4/block2/bn_1x1conv_1", "trainable": true, "axis": -1, "momentum": 0.99, "epsilon": 0.001, "center": true, "scale": true, "beta_initializer": {"class_name": "Zeros", "config": {}}, "gamma_initializer": {"class_name": "Ones", "config": {}}, "moving_mean_initializer": {"class_name": "Zeros", "config": {}}, "moving_variance_initializer": {"class_name": "Ones", "config": {}}, "beta_regularizer": null, "gamma_regularizer": null, "beta_constraint": null, "gamma_constraint": null}, "inbound_nodes": [[["stage4/block2/1x1conv_1", 0, 0, {}]]]}, {"name": "stage4/block2/relu_1x1conv_1", "class_name": "Activation", "config": {"name": "stage4/block2/relu_1x1conv_1", "trainable": true, "activation": "relu"}, "inbound_nodes": [[["stage4/block2/bn_1x1conv_1", 0, 0, {}]]]}, {"name": "stage4/block2/3x3dwconv", "class_name": "DepthwiseConv2D", "config": {"name": "stage4/block2/3x3dwconv", "trainable": true, "kernel_size": [3, 3], "strides": [1, 1], "padding": "same", "data_format": "channels_last", "dilation_rate": [1, 1], "activation": "linear", "use_bias": true, "bias_initializer": {"class_name": "Zeros", "config": {}}, "bias_regularizer": null, "activity_regularizer": null, "bias_constraint": null, "depth_multiplier": 1, "depthwise_initializer": {"class_name": "VarianceScaling", "config": {"scale": 1.0, "mode": "fan_avg", "distribution": "uniform", "seed": null}}, "depthwise_regularizer": null, "depthwise_constraint": null}, "inbound_nodes": [[["stage4/block2/relu_1x1conv_1", 0, 0, {}]]]}, {"name": "stage4/block2/bn_3x3dwconv", "class_name": "BatchNormalization", "config": {"name": "stage4/block2/bn_3x3dwconv", "trainable": true, "axis": -1, "momentum": 0.99, "epsilon": 0.001, "center": true, "scale": true, "beta_initializer": {"class_name": "Zeros", "config": {}}, "gamma_initializer": {"class_name": "Ones", "config": {}}, "moving_mean_initializer": {"class_name": "Zeros", "config": {}}, "moving_variance_initializer": {"class_name": "Ones", "config": {}}, "beta_regularizer": null, "gamma_regularizer": null, "beta_constraint": null, "gamma_constraint": null}, "inbound_nodes": [[["stage4/block2/3x3dwconv", 0, 0, {}]]]}, {"name": "stage4/block2/1x1conv_2", "class_name": "Conv2D", "config": {"name": "stage4/block2/1x1conv_2", "trainable": true, "filters": 464, "kernel_size": [1, 1], "strides": [1, 1], "padding": "same", "data_format": "channels_last", "dilation_rate": [1, 1], "activation": "linear", "use_bias": true, "kernel_initializer": {"class_name": "VarianceScaling", "config": {"scale": 1.0, "mode": "fan_avg", "distribution": "uniform", "seed": null}}, "bias_initializer": {"class_name": "Zeros", "config": {}}, "kernel_regularizer": null, "bias_regularizer": null, "activity_regularizer": null, "kernel_constraint": null, "bias_constraint": null}, "inbound_nodes": [[["stage4/block2/bn_3x3dwconv", 0, 0, {}]]]}, {"name": "stage4/block2/bn_1x1conv_2", "class_name": "BatchNormalization", "config": {"name": "stage4/block2/bn_1x1conv_2", "trainable": true, "axis": -1, "momentum": 0.99, "epsilon": 0.001, "center": true, "scale": true, "beta_initializer": {"class_name": "Zeros", "config": {}}, "gamma_initializer": {"class_name": "Ones", "config": {}}, "moving_mean_initializer": {"class_name": "Zeros", "config": {}}, "moving_variance_initializer": {"class_name": "Ones", "config": {}}, "beta_regularizer": null, "gamma_regularizer": null, "beta_constraint": null, "gamma_constraint": null}, "inbound_nodes": [[["stage4/block2/1x1conv_2", 0, 0, {}]]]}, {"name": "stage4/block2/relu_1x1conv_2", "class_name": "Activation", "config": {"name": "stage4/block2/relu_1x1conv_2", "trainable": true, "activation": "relu"}, "inbound_nodes": [[["stage4/block2/bn_1x1conv_2", 0, 0, {}]]]}, {"name": "stage4/block2/spl/sp0_slice", "class_name": "Lambda", "config": {"name": "stage4/block2/spl/sp0_slice", "trainable": true, "function": ["4wEAAAAAAAAAAQAAAAYAAAATAAAAcyAAAAB8AGQAZACFAmQAZACFAmQAZACFAmQBiACFAmYEGQBT\nACkCTukAAAAAqQApAdoBeikB2gJpcHICAAAA+iEuLi8uLi9rZXJhcy1zaHVmZmxlbmV0VjIvdXRp\nbHMucHnaCDxsYW1iZGE+FgAAAPMAAAAA\n", null, [464]], "function_type": "lambda", "output_shape": null, "output_shape_type": "raw", "arguments": {}}, "inbound_nodes": [[["stage4/block1/channel_shuffle", 0, 0, {}]]]}, {"name": "stage4/block2/concat_1", "class_name": "Concatenate", "config": {"name": "stage4/block2/concat_1", "trainable": true, "axis": -1}, "inbound_nodes": [[["stage4/block2/relu_1x1conv_2", 0, 0, {}], ["stage4/block2/spl/sp0_slice", 0, 0, {}]]]}, {"name": "stage4/block2/channel_shuffle", "class_name": "Lambda", "config": {"name": "stage4/block2/channel_shuffle", "trainable": true, "function": ["4wEAAAAAAAAABQAAAAcAAABDAAAAc1oAAAB8AGoAagGDAGQBZACFAhkAXAN9AX0CfQN8A2QCGgB9\nBHQCagN8AGQGfAF8AmQCfARnBYMCfQB0AmoEfABkB4MCfQB0AmoDfABkCHwBfAJ8A2cEgwJ9AHwA\nUwApCU7pAQAAAOkCAAAA6QAAAADpBAAAAOkDAAAA6f////8pBXIDAAAAcgEAAAByAgAAAHIEAAAA\ncgUAAAByBgAAACkF2gVzaGFwZdoHYXNfbGlzdNoBS9oHcmVzaGFwZdoScGVybXV0ZV9kaW1lbnNp\nb25zKQXaAXjaBmhlaWdodNoFd2lkdGjaCGNoYW5uZWxzWhJjaGFubmVsc19wZXJfc3BsaXSpAHIQ\nAAAA+iEuLi8uLi9rZXJhcy1zaHVmZmxlbmV0VjIvdXRpbHMucHnaD2NoYW5uZWxfc2h1ZmZsZRoA\nAABzDAAAAAABGAEIARYBDAEUAQ==\n", null, null], "function_type": "lambda", "output_shape": null, "output_shape_type": "raw", "arguments": {}}, "inbound_nodes": [[["stage4/block2/concat_1", 0, 0, {}]]]}, {"name": "stage4/block3/spl/sp1_slice", "class_name": "Lambda", "config": {"name": "stage4/block3/spl/sp1_slice", "trainable": true, "function": ["4wEAAAAAAAAAAQAAAAYAAAATAAAAcyAAAAB8AGQAZACFAmQAZACFAmQAZACFAogAZACFAmYEGQBT\nACkBTqkAKQHaAXopAdoCaXByAQAAAPohLi4vLi4va2VyYXMtc2h1ZmZsZW5ldFYyL3V0aWxzLnB5\n2gg8bGFtYmRhPhcAAADzAAAAAA==\n", null, [464]], "function_type": "lambda", "output_shape": null, "output_shape_type": "raw", "arguments": {}}, "inbound_nodes": [[["stage4/block2/channel_shuffle", 0, 0, {}]]]}, {"name": "stage4/block3/1x1conv_1", "class_name": "Conv2D", "config": {"name": "stage4/block3/1x1conv_1", "trainable": true, "filters": 464, "kernel_size": [1, 1], "strides": [1, 1], "padding": "same", "data_format": "channels_last", "dilation_rate": [1, 1], "activation": "linear", "use_bias": true, "kernel_initializer": {"class_name": "VarianceScaling", "config": {"scale": 1.0, "mode": "fan_avg", "distribution": "uniform", "seed": null}}, "bias_initializer": {"class_name": "Zeros", "config": {}}, "kernel_regularizer": null, "bias_regularizer": null, "activity_regularizer": null, "kernel_constraint": null, "bias_constraint": null}, "inbound_nodes": [[["stage4/block3/spl/sp1_slice", 0, 0, {}]]]}, {"name": "stage4/block3/bn_1x1conv_1", "class_name": "BatchNormalization", "config": {"name": "stage4/block3/bn_1x1conv_1", "trainable": true, "axis": -1, "momentum": 0.99, "epsilon": 0.001, "center": true, "scale": true, "beta_initializer": {"class_name": "Zeros", "config": {}}, "gamma_initializer": {"class_name": "Ones", "config": {}}, "moving_mean_initializer": {"class_name": "Zeros", "config": {}}, "moving_variance_initializer": {"class_name": "Ones", "config": {}}, "beta_regularizer": null, "gamma_regularizer": null, "beta_constraint": null, "gamma_constraint": null}, "inbound_nodes": [[["stage4/block3/1x1conv_1", 0, 0, {}]]]}, {"name": "stage4/block3/relu_1x1conv_1", "class_name": "Activation", "config": {"name": "stage4/block3/relu_1x1conv_1", "trainable": true, "activation": "relu"}, "inbound_nodes": [[["stage4/block3/bn_1x1conv_1", 0, 0, {}]]]}, {"name": "stage4/block3/3x3dwconv", "class_name": "DepthwiseConv2D", "config": {"name": "stage4/block3/3x3dwconv", "trainable": true, "kernel_size": [3, 3], "strides": [1, 1], "padding": "same", "data_format": "channels_last", "dilation_rate": [1, 1], "activation": "linear", "use_bias": true, "bias_initializer": {"class_name": "Zeros", "config": {}}, "bias_regularizer": null, "activity_regularizer": null, "bias_constraint": null, "depth_multiplier": 1, "depthwise_initializer": {"class_name": "VarianceScaling", "config": {"scale": 1.0, "mode": "fan_avg", "distribution": "uniform", "seed": null}}, "depthwise_regularizer": null, "depthwise_constraint": null}, "inbound_nodes": [[["stage4/block3/relu_1x1conv_1", 0, 0, {}]]]}, {"name": "stage4/block3/bn_3x3dwconv", "class_name": "BatchNormalization", "config": {"name": "stage4/block3/bn_3x3dwconv", "trainable": true, "axis": -1, "momentum": 0.99, "epsilon": 0.001, "center": true, "scale": true, "beta_initializer": {"class_name": "Zeros", "config": {}}, "gamma_initializer": {"class_name": "Ones", "config": {}}, "moving_mean_initializer": {"class_name": "Zeros", "config": {}}, "moving_variance_initializer": {"class_name": "Ones", "config": {}}, "beta_regularizer": null, "gamma_regularizer": null, "beta_constraint": null, "gamma_constraint": null}, "inbound_nodes": [[["stage4/block3/3x3dwconv", 0, 0, {}]]]}, {"name": "stage4/block3/1x1conv_2", "class_name": "Conv2D", "config": {"name": "stage4/block3/1x1conv_2", "trainable": true, "filters": 464, "kernel_size": [1, 1], "strides": [1, 1], "padding": "same", "data_format": "channels_last", "dilation_rate": [1, 1], "activation": "linear", "use_bias": true, "kernel_initializer": {"class_name": "VarianceScaling", "config": {"scale": 1.0, "mode": "fan_avg", "distribution": "uniform", "seed": null}}, "bias_initializer": {"class_name": "Zeros", "config": {}}, "kernel_regularizer": null, "bias_regularizer": null, "activity_regularizer": null, "kernel_constraint": null, "bias_constraint": null}, "inbound_nodes": [[["stage4/block3/bn_3x3dwconv", 0, 0, {}]]]}, {"name": "stage4/block3/bn_1x1conv_2", "class_name": "BatchNormalization", "config": {"name": "stage4/block3/bn_1x1conv_2", "trainable": true, "axis": -1, "momentum": 0.99, "epsilon": 0.001, "center": true, "scale": true, "beta_initializer": {"class_name": "Zeros", "config": {}}, "gamma_initializer": {"class_name": "Ones", "config": {}}, "moving_mean_initializer": {"class_name": "Zeros", "config": {}}, "moving_variance_initializer": {"class_name": "Ones", "config": {}}, "beta_regularizer": null, "gamma_regularizer": null, "beta_constraint": null, "gamma_constraint": null}, "inbound_nodes": [[["stage4/block3/1x1conv_2", 0, 0, {}]]]}, {"name": "stage4/block3/relu_1x1conv_2", "class_name": "Activation", "config": {"name": "stage4/block3/relu_1x1conv_2", "trainable": true, "activation": "relu"}, "inbound_nodes": [[["stage4/block3/bn_1x1conv_2", 0, 0, {}]]]}, {"name": "stage4/block3/spl/sp0_slice", "class_name": "Lambda", "config": {"name": "stage4/block3/spl/sp0_slice", "trainable": true, "function": ["4wEAAAAAAAAAAQAAAAYAAAATAAAAcyAAAAB8AGQAZACFAmQAZACFAmQAZACFAmQBiACFAmYEGQBT\nACkCTukAAAAAqQApAdoBeikB2gJpcHICAAAA+iEuLi8uLi9rZXJhcy1zaHVmZmxlbmV0VjIvdXRp\nbHMucHnaCDxsYW1iZGE+FgAAAPMAAAAA\n", null, [464]], "function_type": "lambda", "output_shape": null, "output_shape_type": "raw", "arguments": {}}, "inbound_nodes": [[["stage4/block2/channel_shuffle", 0, 0, {}]]]}, {"name": "stage4/block3/concat_1", "class_name": "Concatenate", "config": {"name": "stage4/block3/concat_1", "trainable": true, "axis": -1}, "inbound_nodes": [[["stage4/block3/relu_1x1conv_2", 0, 0, {}], ["stage4/block3/spl/sp0_slice", 0, 0, {}]]]}, {"name": "stage4/block3/channel_shuffle", "class_name": "Lambda", "config": {"name": "stage4/block3/channel_shuffle", "trainable": true, "function": ["4wEAAAAAAAAABQAAAAcAAABDAAAAc1oAAAB8AGoAagGDAGQBZACFAhkAXAN9AX0CfQN8A2QCGgB9\nBHQCagN8AGQGfAF8AmQCfARnBYMCfQB0AmoEfABkB4MCfQB0AmoDfABkCHwBfAJ8A2cEgwJ9AHwA\nUwApCU7pAQAAAOkCAAAA6QAAAADpBAAAAOkDAAAA6f////8pBXIDAAAAcgEAAAByAgAAAHIEAAAA\ncgUAAAByBgAAACkF2gVzaGFwZdoHYXNfbGlzdNoBS9oHcmVzaGFwZdoScGVybXV0ZV9kaW1lbnNp\nb25zKQXaAXjaBmhlaWdodNoFd2lkdGjaCGNoYW5uZWxzWhJjaGFubmVsc19wZXJfc3BsaXSpAHIQ\nAAAA+iEuLi8uLi9rZXJhcy1zaHVmZmxlbmV0VjIvdXRpbHMucHnaD2NoYW5uZWxfc2h1ZmZsZRoA\nAABzDAAAAAABGAEIARYBDAEUAQ==\n", null, null], "function_type": "lambda", "output_shape": null, "output_shape_type": "raw", "arguments": {}}, "inbound_nodes": [[["stage4/block3/concat_1", 0, 0, {}]]]}, {"name": "stage4/block4/spl/sp1_slice", "class_name": "Lambda", "config": {"name": "stage4/block4/spl/sp1_slice", "trainable": true, "function": ["4wEAAAAAAAAAAQAAAAYAAAATAAAAcyAAAAB8AGQAZACFAmQAZACFAmQAZACFAogAZACFAmYEGQBT\nACkBTqkAKQHaAXopAdoCaXByAQAAAPohLi4vLi4va2VyYXMtc2h1ZmZsZW5ldFYyL3V0aWxzLnB5\n2gg8bGFtYmRhPhcAAADzAAAAAA==\n", null, [464]], "function_type": "lambda", "output_shape": null, "output_shape_type": "raw", "arguments": {}}, "inbound_nodes": [[["stage4/block3/channel_shuffle", 0, 0, {}]]]}, {"name": "stage4/block4/1x1conv_1", "class_name": "Conv2D", "config": {"name": "stage4/block4/1x1conv_1", "trainable": true, "filters": 464, "kernel_size": [1, 1], "strides": [1, 1], "padding": "same", "data_format": "channels_last", "dilation_rate": [1, 1], "activation": "linear", "use_bias": true, "kernel_initializer": {"class_name": "VarianceScaling", "config": {"scale": 1.0, "mode": "fan_avg", "distribution": "uniform", "seed": null}}, "bias_initializer": {"class_name": "Zeros", "config": {}}, "kernel_regularizer": null, "bias_regularizer": null, "activity_regularizer": null, "kernel_constraint": null, "bias_constraint": null}, "inbound_nodes": [[["stage4/block4/spl/sp1_slice", 0, 0, {}]]]}, {"name": "stage4/block4/bn_1x1conv_1", "class_name": "BatchNormalization", "config": {"name": "stage4/block4/bn_1x1conv_1", "trainable": true, "axis": -1, "momentum": 0.99, "epsilon": 0.001, "center": true, "scale": true, "beta_initializer": {"class_name": "Zeros", "config": {}}, "gamma_initializer": {"class_name": "Ones", "config": {}}, "moving_mean_initializer": {"class_name": "Zeros", "config": {}}, "moving_variance_initializer": {"class_name": "Ones", "config": {}}, "beta_regularizer": null, "gamma_regularizer": null, "beta_constraint": null, "gamma_constraint": null}, "inbound_nodes": [[["stage4/block4/1x1conv_1", 0, 0, {}]]]}, {"name": "stage4/block4/relu_1x1conv_1", "class_name": "Activation", "config": {"name": "stage4/block4/relu_1x1conv_1", "trainable": true, "activation": "relu"}, "inbound_nodes": [[["stage4/block4/bn_1x1conv_1", 0, 0, {}]]]}, {"name": "stage4/block4/3x3dwconv", "class_name": "DepthwiseConv2D", "config": {"name": "stage4/block4/3x3dwconv", "trainable": true, "kernel_size": [3, 3], "strides": [1, 1], "padding": "same", "data_format": "channels_last", "dilation_rate": [1, 1], "activation": "linear", "use_bias": true, "bias_initializer": {"class_name": "Zeros", "config": {}}, "bias_regularizer": null, "activity_regularizer": null, "bias_constraint": null, "depth_multiplier": 1, "depthwise_initializer": {"class_name": "VarianceScaling", "config": {"scale": 1.0, "mode": "fan_avg", "distribution": "uniform", "seed": null}}, "depthwise_regularizer": null, "depthwise_constraint": null}, "inbound_nodes": [[["stage4/block4/relu_1x1conv_1", 0, 0, {}]]]}, {"name": "stage4/block4/bn_3x3dwconv", "class_name": "BatchNormalization", "config": {"name": "stage4/block4/bn_3x3dwconv", "trainable": true, "axis": -1, "momentum": 0.99, "epsilon": 0.001, "center": true, "scale": true, "beta_initializer": {"class_name": "Zeros", "config": {}}, "gamma_initializer": {"class_name": "Ones", "config": {}}, "moving_mean_initializer": {"class_name": "Zeros", "config": {}}, "moving_variance_initializer": {"class_name": "Ones", "config": {}}, "beta_regularizer": null, "gamma_regularizer": null, "beta_constraint": null, "gamma_constraint": null}, "inbound_nodes": [[["stage4/block4/3x3dwconv", 0, 0, {}]]]}, {"name": "stage4/block4/1x1conv_2", "class_name": "Conv2D", "config": {"name": "stage4/block4/1x1conv_2", "trainable": true, "filters": 464, "kernel_size": [1, 1], "strides": [1, 1], "padding": "same", "data_format": "channels_last", "dilation_rate": [1, 1], "activation": "linear", "use_bias": true, "kernel_initializer": {"class_name": "VarianceScaling", "config": {"scale": 1.0, "mode": "fan_avg", "distribution": "uniform", "seed": null}}, "bias_initializer": {"class_name": "Zeros", "config": {}}, "kernel_regularizer": null, "bias_regularizer": null, "activity_regularizer": null, "kernel_constraint": null, "bias_constraint": null}, "inbound_nodes": [[["stage4/block4/bn_3x3dwconv", 0, 0, {}]]]}, {"name": "stage4/block4/bn_1x1conv_2", "class_name": "BatchNormalization", "config": {"name": "stage4/block4/bn_1x1conv_2", "trainable": true, "axis": -1, "momentum": 0.99, "epsilon": 0.001, "center": true, "scale": true, "beta_initializer": {"class_name": "Zeros", "config": {}}, "gamma_initializer": {"class_name": "Ones", "config": {}}, "moving_mean_initializer": {"class_name": "Zeros", "config": {}}, "moving_variance_initializer": {"class_name": "Ones", "config": {}}, "beta_regularizer": null, "gamma_regularizer": null, "beta_constraint": null, "gamma_constraint": null}, "inbound_nodes": [[["stage4/block4/1x1conv_2", 0, 0, {}]]]}, {"name": "stage4/block4/relu_1x1conv_2", "class_name": "Activation", "config": {"name": "stage4/block4/relu_1x1conv_2", "trainable": true, "activation": "relu"}, "inbound_nodes": [[["stage4/block4/bn_1x1conv_2", 0, 0, {}]]]}, {"name": "stage4/block4/spl/sp0_slice", "class_name": "Lambda", "config": {"name": "stage4/block4/spl/sp0_slice", "trainable": true, "function": ["4wEAAAAAAAAAAQAAAAYAAAATAAAAcyAAAAB8AGQAZACFAmQAZACFAmQAZACFAmQBiACFAmYEGQBT\nACkCTukAAAAAqQApAdoBeikB2gJpcHICAAAA+iEuLi8uLi9rZXJhcy1zaHVmZmxlbmV0VjIvdXRp\nbHMucHnaCDxsYW1iZGE+FgAAAPMAAAAA\n", null, [464]], "function_type": "lambda", "output_shape": null, "output_shape_type": "raw", "arguments": {}}, "inbound_nodes": [[["stage4/block3/channel_shuffle", 0, 0, {}]]]}, {"name": "stage4/block4/concat_1", "class_name": "Concatenate", "config": {"name": "stage4/block4/concat_1", "trainable": true, "axis": -1}, "inbound_nodes": [[["stage4/block4/relu_1x1conv_2", 0, 0, {}], ["stage4/block4/spl/sp0_slice", 0, 0, {}]]]}, {"name": "stage4/block4/channel_shuffle", "class_name": "Lambda", "config": {"name": "stage4/block4/channel_shuffle", "trainable": true, "function": ["4wEAAAAAAAAABQAAAAcAAABDAAAAc1oAAAB8AGoAagGDAGQBZACFAhkAXAN9AX0CfQN8A2QCGgB9\nBHQCagN8AGQGfAF8AmQCfARnBYMCfQB0AmoEfABkB4MCfQB0AmoDfABkCHwBfAJ8A2cEgwJ9AHwA\nUwApCU7pAQAAAOkCAAAA6QAAAADpBAAAAOkDAAAA6f////8pBXIDAAAAcgEAAAByAgAAAHIEAAAA\ncgUAAAByBgAAACkF2gVzaGFwZdoHYXNfbGlzdNoBS9oHcmVzaGFwZdoScGVybXV0ZV9kaW1lbnNp\nb25zKQXaAXjaBmhlaWdodNoFd2lkdGjaCGNoYW5uZWxzWhJjaGFubmVsc19wZXJfc3BsaXSpAHIQ\nAAAA+iEuLi8uLi9rZXJhcy1zaHVmZmxlbmV0VjIvdXRpbHMucHnaD2NoYW5uZWxfc2h1ZmZsZRoA\nAABzDAAAAAABGAEIARYBDAEUAQ==\n", null, null], "function_type": "lambda", "output_shape": null, "output_shape_type": "raw", "arguments": {}}, "inbound_nodes": [[["stage4/block4/concat_1", 0, 0, {}]]]}, {"name": "onv5_out_1x1", "class_name": "Conv2D", "config": {"name": "onv5_out_1x1", "trainable": true, "filters": 1024, "kernel_size": [1, 1], "strides": [1, 1], "padding": "same", "data_format": "channels_last", "dilation_rate": [1, 1], "activation": "relu", "use_bias": true, "kernel_initializer": {"class_name": "VarianceScaling", "config": {"scale": 1.0, "mode": "fan_avg", "distribution": "uniform", "seed": null}}, "bias_initializer": {"class_name": "Zeros", "config": {}}, "kernel_regularizer": null, "bias_regularizer": null, "activity_regularizer": null, "kernel_constraint": null, "bias_constraint": null}, "inbound_nodes": [[["stage4/block4/channel_shuffle", 0, 0, {}]]]}, {"name": "global_avg_pool", "class_name": "GlobalAveragePooling2D", "config": {"name": "global_avg_pool", "trainable": true, "data_format": "channels_last"}, "inbound_nodes": [[["onv5_out_1x1", 0, 0, {}]]]}], "input_layers": [["input_2", 0, 0]], "output_layers": [["global_avg_pool", 0, 0]]}, "inbound_nodes": [[["input_1", 0, 0, {}]]]}, {"name": "dense_1", "class_name": "Dense", "config": {"name": "dense_1", "trainable": true, "units": 28, "activation": "sigmoid", "use_bias": true, "kernel_initializer": {"class_name": "VarianceScaling", "config": {"scale": 1.0, "mode": "fan_avg", "distribution": "uniform", "seed": null}}, "bias_initializer": {"class_name": "Zeros", "config": {}}, "kernel_regularizer": null, "bias_regularizer": null, "activity_regularizer": null, "kernel_constraint": null, "bias_constraint": null}, "inbound_nodes": [[["shufflenet", 1, 0, {}]]]}], "input_layers": [["input_1", 0, 0]], "output_layers": [["dense_1", 0, 0]]}}, "training_config": {"optimizer_config": {"class_name": "Adam", "config": {"lr": 0.0005000000237487257, "beta_1": 0.8999999761581421, "beta_2": 0.9990000128746033, "decay": 0.0, "epsilon": 1e-07, "amsgrad": false}}, "loss": "binary_crossentropy", "metrics": ["acc"], "sample_weight_mode": null, "loss_weights": null}}, "weightsManifest": [{"paths": ["group1-shard1of4", "group1-shard2of4", "group1-shard3of4", "group1-shard4of4"], "weights": [{"name": "dense_1/kernel", "shape": [1024, 28], "dtype": "float32"}, {"name": "dense_1/bias", "shape": [28], "dtype": "float32"}, {"name": "conv1/kernel", "shape": [3, 3, 3, 24], "dtype": "float32"}, {"name": "stage2/block1/1x1conv_1/kernel", "shape": [1, 1, 24, 116], "dtype": "float32"}, {"name": "stage2/block1/1x1conv_1/bias", "shape": [116], "dtype": "float32"}, {"name": "stage2/block1/bn_1x1conv_1/gamma", "shape": [116], "dtype": "float32"}, {"name": "stage2/block1/bn_1x1conv_1/beta", "shape": [116], "dtype": "float32"}, {"name": "stage2/block1/3x3dwconv/depthwise_kernel", "shape": [3, 3, 116, 1], "dtype": "float32"}, {"name": "stage2/block1/3x3dwconv/bias", "shape": [116], "dtype": "float32"}, {"name": "stage2/block1/3x3dwconv_2/depthwise_kernel", "shape": [3, 3, 24, 1], "dtype": "float32"}, {"name": "stage2/block1/3x3dwconv_2/bias", "shape": [24], "dtype": "float32"}, {"name": "stage2/block1/bn_3x3dwconv/gamma", "shape": [116], "dtype": "float32"}, {"name": "stage2/block1/bn_3x3dwconv/beta", "shape": [116], "dtype": "float32"}, {"name": "stage2/block1/bn_3x3dwconv_2/gamma", "shape": [24], "dtype": "float32"}, {"name": "stage2/block1/bn_3x3dwconv_2/beta", "shape": [24], "dtype": "float32"}, {"name": "stage2/block1/1x1conv_2/kernel", "shape": [1, 1, 116, 116], "dtype": "float32"}, {"name": "stage2/block1/1x1conv_2/bias", "shape": [116], "dtype": "float32"}, {"name": "stage2/block1/1x1_conv_3/kernel", "shape": [1, 1, 24, 116], "dtype": "float32"}, {"name": "stage2/block1/1x1_conv_3/bias", "shape": [116], "dtype": "float32"}, {"name": "stage2/block1/bn_1x1conv_2/gamma", "shape": [116], "dtype": "float32"}, {"name": "stage2/block1/bn_1x1conv_2/beta", "shape": [116], "dtype": "float32"}, {"name": "stage2/block1/bn_1x1conv_3/gamma", "shape": [116], "dtype": "float32"}, {"name": "stage2/block1/bn_1x1conv_3/beta", "shape": [116], "dtype": "float32"}, {"name": "stage2/block2/1x1conv_1/kernel", "shape": [1, 1, 116, 116], "dtype": "float32"}, {"name": "stage2/block2/1x1conv_1/bias", "shape": [116], "dtype": "float32"}, {"name": "stage2/block2/bn_1x1conv_1/gamma", "shape": [116], "dtype": "float32"}, {"name": "stage2/block2/bn_1x1conv_1/beta", "shape": [116], "dtype": "float32"}, {"name": "stage2/block2/3x3dwconv/depthwise_kernel", "shape": [3, 3, 116, 1], "dtype": "float32"}, {"name": "stage2/block2/3x3dwconv/bias", "shape": [116], "dtype": "float32"}, {"name": "stage2/block2/bn_3x3dwconv/gamma", "shape": [116], "dtype": "float32"}, {"name": "stage2/block2/bn_3x3dwconv/beta", "shape": [116], "dtype": "float32"}, {"name": "stage2/block2/1x1conv_2/kernel", "shape": [1, 1, 116, 116], "dtype": "float32"}, {"name": "stage2/block2/1x1conv_2/bias", "shape": [116], "dtype": "float32"}, {"name": "stage2/block2/bn_1x1conv_2/gamma", "shape": [116], "dtype": "float32"}, {"name": "stage2/block2/bn_1x1conv_2/beta", "shape": [116], "dtype": "float32"}, {"name": "stage2/block3/1x1conv_1/kernel", "shape": [1, 1, 116, 116], "dtype": "float32"}, {"name": "stage2/block3/1x1conv_1/bias", "shape": [116], "dtype": "float32"}, {"name": "stage2/block3/bn_1x1conv_1/gamma", "shape": [116], "dtype": "float32"}, {"name": "stage2/block3/bn_1x1conv_1/beta", "shape": [116], "dtype": "float32"}, {"name": "stage2/block3/3x3dwconv/depthwise_kernel", "shape": [3, 3, 116, 1], "dtype": "float32"}, {"name": "stage2/block3/3x3dwconv/bias", "shape": [116], "dtype": "float32"}, {"name": "stage2/block3/bn_3x3dwconv/gamma", "shape": [116], "dtype": "float32"}, {"name": "stage2/block3/bn_3x3dwconv/beta", "shape": [116], "dtype": "float32"}, {"name": "stage2/block3/1x1conv_2/kernel", "shape": [1, 1, 116, 116], "dtype": "float32"}, {"name": "stage2/block3/1x1conv_2/bias", "shape": [116], "dtype": "float32"}, {"name": "stage2/block3/bn_1x1conv_2/gamma", "shape": [116], "dtype": "float32"}, {"name": "stage2/block3/bn_1x1conv_2/beta", "shape": [116], "dtype": "float32"}, {"name": "stage2/block4/1x1conv_1/kernel", "shape": [1, 1, 116, 116], "dtype": "float32"}, {"name": "stage2/block4/1x1conv_1/bias", "shape": [116], "dtype": "float32"}, {"name": "stage2/block4/bn_1x1conv_1/gamma", "shape": [116], "dtype": "float32"}, {"name": "stage2/block4/bn_1x1conv_1/beta", "shape": [116], "dtype": "float32"}, {"name": "stage2/block4/3x3dwconv/depthwise_kernel", "shape": [3, 3, 116, 1], "dtype": "float32"}, {"name": "stage2/block4/3x3dwconv/bias", "shape": [116], "dtype": "float32"}, {"name": "stage2/block4/bn_3x3dwconv/gamma", "shape": [116], "dtype": "float32"}, {"name": "stage2/block4/bn_3x3dwconv/beta", "shape": [116], "dtype": "float32"}, {"name": "stage2/block4/1x1conv_2/kernel", "shape": [1, 1, 116, 116], "dtype": "float32"}, {"name": "stage2/block4/1x1conv_2/bias", "shape": [116], "dtype": "float32"}, {"name": "stage2/block4/bn_1x1conv_2/gamma", "shape": [116], "dtype": "float32"}, {"name": "stage2/block4/bn_1x1conv_2/beta", "shape": [116], "dtype": "float32"}, {"name": "stage3/block1/1x1conv_1/kernel", "shape": [1, 1, 232, 232], "dtype": "float32"}, {"name": "stage3/block1/1x1conv_1/bias", "shape": [232], "dtype": "float32"}, {"name": "stage3/block1/bn_1x1conv_1/gamma", "shape": [232], "dtype": "float32"}, {"name": "stage3/block1/bn_1x1conv_1/beta", "shape": [232], "dtype": "float32"}, {"name": "stage3/block1/3x3dwconv/depthwise_kernel", "shape": [3, 3, 232, 1], "dtype": "float32"}, {"name": "stage3/block1/3x3dwconv/bias", "shape": [232], "dtype": "float32"}, {"name": "stage3/block1/3x3dwconv_2/depthwise_kernel", "shape": [3, 3, 232, 1], "dtype": "float32"}, {"name": "stage3/block1/3x3dwconv_2/bias", "shape": [232], "dtype": "float32"}, {"name": "stage3/block1/bn_3x3dwconv/gamma", "shape": [232], "dtype": "float32"}, {"name": "stage3/block1/bn_3x3dwconv/beta", "shape": [232], "dtype": "float32"}, {"name": "stage3/block1/bn_3x3dwconv_2/gamma", "shape": [232], "dtype": "float32"}, {"name": "stage3/block1/bn_3x3dwconv_2/beta", "shape": [232], "dtype": "float32"}, {"name": "stage3/block1/1x1conv_2/kernel", "shape": [1, 1, 232, 232], "dtype": "float32"}, {"name": "stage3/block1/1x1conv_2/bias", "shape": [232], "dtype": "float32"}, {"name": "stage3/block1/1x1_conv_3/kernel", "shape": [1, 1, 232, 232], "dtype": "float32"}, {"name": "stage3/block1/1x1_conv_3/bias", "shape": [232], "dtype": "float32"}, {"name": "stage3/block1/bn_1x1conv_2/gamma", "shape": [232], "dtype": "float32"}, {"name": "stage3/block1/bn_1x1conv_2/beta", "shape": [232], "dtype": "float32"}, {"name": "stage3/block1/bn_1x1conv_3/gamma", "shape": [232], "dtype": "float32"}, {"name": "stage3/block1/bn_1x1conv_3/beta", "shape": [232], "dtype": "float32"}, {"name": "stage3/block2/1x1conv_1/kernel", "shape": [1, 1, 232, 232], "dtype": "float32"}, {"name": "stage3/block2/1x1conv_1/bias", "shape": [232], "dtype": "float32"}, {"name": "stage3/block2/bn_1x1conv_1/gamma", "shape": [232], "dtype": "float32"}, {"name": "stage3/block2/bn_1x1conv_1/beta", "shape": [232], "dtype": "float32"}, {"name": "stage3/block2/3x3dwconv/depthwise_kernel", "shape": [3, 3, 232, 1], "dtype": "float32"}, {"name": "stage3/block2/3x3dwconv/bias", "shape": [232], "dtype": "float32"}, {"name": "stage3/block2/bn_3x3dwconv/gamma", "shape": [232], "dtype": "float32"}, {"name": "stage3/block2/bn_3x3dwconv/beta", "shape": [232], "dtype": "float32"}, {"name": "stage3/block2/1x1conv_2/kernel", "shape": [1, 1, 232, 232], "dtype": "float32"}, {"name": "stage3/block2/1x1conv_2/bias", "shape": [232], "dtype": "float32"}, {"name": "stage3/block2/bn_1x1conv_2/gamma", "shape": [232], "dtype": "float32"}, {"name": "stage3/block2/bn_1x1conv_2/beta", "shape": [232], "dtype": "float32"}, {"name": "stage3/block3/1x1conv_1/kernel", "shape": [1, 1, 232, 232], "dtype": "float32"}, {"name": "stage3/block3/1x1conv_1/bias", "shape": [232], "dtype": "float32"}, {"name": "stage3/block3/bn_1x1conv_1/gamma", "shape": [232], "dtype": "float32"}, {"name": "stage3/block3/bn_1x1conv_1/beta", "shape": [232], "dtype": "float32"}, {"name": "stage3/block3/3x3dwconv/depthwise_kernel", "shape": [3, 3, 232, 1], "dtype": "float32"}, {"name": "stage3/block3/3x3dwconv/bias", "shape": [232], "dtype": "float32"}, {"name": "stage3/block3/bn_3x3dwconv/gamma", "shape": [232], "dtype": "float32"}, {"name": "stage3/block3/bn_3x3dwconv/beta", "shape": [232], "dtype": "float32"}, {"name": "stage3/block3/1x1conv_2/kernel", "shape": [1, 1, 232, 232], "dtype": "float32"}, {"name": "stage3/block3/1x1conv_2/bias", "shape": [232], "dtype": "float32"}, {"name": "stage3/block3/bn_1x1conv_2/gamma", "shape": [232], "dtype": "float32"}, {"name": "stage3/block3/bn_1x1conv_2/beta", "shape": [232], "dtype": "float32"}, {"name": "stage3/block4/1x1conv_1/kernel", "shape": [1, 1, 232, 232], "dtype": "float32"}, {"name": "stage3/block4/1x1conv_1/bias", "shape": [232], "dtype": "float32"}, {"name": "stage3/block4/bn_1x1conv_1/gamma", "shape": [232], "dtype": "float32"}, {"name": "stage3/block4/bn_1x1conv_1/beta", "shape": [232], "dtype": "float32"}, {"name": "stage3/block4/3x3dwconv/depthwise_kernel", "shape": [3, 3, 232, 1], "dtype": "float32"}, {"name": "stage3/block4/3x3dwconv/bias", "shape": [232], "dtype": "float32"}, {"name": "stage3/block4/bn_3x3dwconv/gamma", "shape": [232], "dtype": "float32"}, {"name": "stage3/block4/bn_3x3dwconv/beta", "shape": [232], "dtype": "float32"}, {"name": "stage3/block4/1x1conv_2/kernel", "shape": [1, 1, 232, 232], "dtype": "float32"}, {"name": "stage3/block4/1x1conv_2/bias", "shape": [232], "dtype": "float32"}, {"name": "stage3/block4/bn_1x1conv_2/gamma", "shape": [232], "dtype": "float32"}, {"name": "stage3/block4/bn_1x1conv_2/beta", "shape": [232], "dtype": "float32"}, {"name": "stage3/block5/1x1conv_1/kernel", "shape": [1, 1, 232, 232], "dtype": "float32"}, {"name": "stage3/block5/1x1conv_1/bias", "shape": [232], "dtype": "float32"}, {"name": "stage3/block5/bn_1x1conv_1/gamma", "shape": [232], "dtype": "float32"}, {"name": "stage3/block5/bn_1x1conv_1/beta", "shape": [232], "dtype": "float32"}, {"name": "stage3/block5/3x3dwconv/depthwise_kernel", "shape": [3, 3, 232, 1], "dtype": "float32"}, {"name": "stage3/block5/3x3dwconv/bias", "shape": [232], "dtype": "float32"}, {"name": "stage3/block5/bn_3x3dwconv/gamma", "shape": [232], "dtype": "float32"}, {"name": "stage3/block5/bn_3x3dwconv/beta", "shape": [232], "dtype": "float32"}, {"name": "stage3/block5/1x1conv_2/kernel", "shape": [1, 1, 232, 232], "dtype": "float32"}, {"name": "stage3/block5/1x1conv_2/bias", "shape": [232], "dtype": "float32"}, {"name": "stage3/block5/bn_1x1conv_2/gamma", "shape": [232], "dtype": "float32"}, {"name": "stage3/block5/bn_1x1conv_2/beta", "shape": [232], "dtype": "float32"}, {"name": "stage3/block6/1x1conv_1/kernel", "shape": [1, 1, 232, 232], "dtype": "float32"}, {"name": "stage3/block6/1x1conv_1/bias", "shape": [232], "dtype": "float32"}, {"name": "stage3/block6/bn_1x1conv_1/gamma", "shape": [232], "dtype": "float32"}, {"name": "stage3/block6/bn_1x1conv_1/beta", "shape": [232], "dtype": "float32"}, {"name": "stage3/block6/3x3dwconv/depthwise_kernel", "shape": [3, 3, 232, 1], "dtype": "float32"}, {"name": "stage3/block6/3x3dwconv/bias", "shape": [232], "dtype": "float32"}, {"name": "stage3/block6/bn_3x3dwconv/gamma", "shape": [232], "dtype": "float32"}, {"name": "stage3/block6/bn_3x3dwconv/beta", "shape": [232], "dtype": "float32"}, {"name": "stage3/block6/1x1conv_2/kernel", "shape": [1, 1, 232, 232], "dtype": "float32"}, {"name": "stage3/block6/1x1conv_2/bias", "shape": [232], "dtype": "float32"}, {"name": "stage3/block6/bn_1x1conv_2/gamma", "shape": [232], "dtype": "float32"}, {"name": "stage3/block6/bn_1x1conv_2/beta", "shape": [232], "dtype": "float32"}, {"name": "stage3/block7/1x1conv_1/kernel", "shape": [1, 1, 232, 232], "dtype": "float32"}, {"name": "stage3/block7/1x1conv_1/bias", "shape": [232], "dtype": "float32"}, {"name": "stage3/block7/bn_1x1conv_1/gamma", "shape": [232], "dtype": "float32"}, {"name": "stage3/block7/bn_1x1conv_1/beta", "shape": [232], "dtype": "float32"}, {"name": "stage3/block7/3x3dwconv/depthwise_kernel", "shape": [3, 3, 232, 1], "dtype": "float32"}, {"name": "stage3/block7/3x3dwconv/bias", "shape": [232], "dtype": "float32"}, {"name": "stage3/block7/bn_3x3dwconv/gamma", "shape": [232], "dtype": "float32"}, {"name": "stage3/block7/bn_3x3dwconv/beta", "shape": [232], "dtype": "float32"}, {"name": "stage3/block7/1x1conv_2/kernel", "shape": [1, 1, 232, 232], "dtype": "float32"}, {"name": "stage3/block7/1x1conv_2/bias", "shape": [232], "dtype": "float32"}, {"name": "stage3/block7/bn_1x1conv_2/gamma", "shape": [232], "dtype": "float32"}, {"name": "stage3/block7/bn_1x1conv_2/beta", "shape": [232], "dtype": "float32"}, {"name": "stage3/block8/1x1conv_1/kernel", "shape": [1, 1, 232, 232], "dtype": "float32"}, {"name": "stage3/block8/1x1conv_1/bias", "shape": [232], "dtype": "float32"}, {"name": "stage3/block8/bn_1x1conv_1/gamma", "shape": [232], "dtype": "float32"}, {"name": "stage3/block8/bn_1x1conv_1/beta", "shape": [232], "dtype": "float32"}, {"name": "stage3/block8/3x3dwconv/depthwise_kernel", "shape": [3, 3, 232, 1], "dtype": "float32"}, {"name": "stage3/block8/3x3dwconv/bias", "shape": [232], "dtype": "float32"}, {"name": "stage3/block8/bn_3x3dwconv/gamma", "shape": [232], "dtype": "float32"}, {"name": "stage3/block8/bn_3x3dwconv/beta", "shape": [232], "dtype": "float32"}, {"name": "stage3/block8/1x1conv_2/kernel", "shape": [1, 1, 232, 232], "dtype": "float32"}, {"name": "stage3/block8/1x1conv_2/bias", "shape": [232], "dtype": "float32"}, {"name": "stage3/block8/bn_1x1conv_2/gamma", "shape": [232], "dtype": "float32"}, {"name": "stage3/block8/bn_1x1conv_2/beta", "shape": [232], "dtype": "float32"}, {"name": "stage4/block1/1x1conv_1/kernel", "shape": [1, 1, 464, 464], "dtype": "float32"}, {"name": "stage4/block1/1x1conv_1/bias", "shape": [464], "dtype": "float32"}, {"name": "stage4/block1/bn_1x1conv_1/gamma", "shape": [464], "dtype": "float32"}, {"name": "stage4/block1/bn_1x1conv_1/beta", "shape": [464], "dtype": "float32"}, {"name": "stage4/block1/3x3dwconv/depthwise_kernel", "shape": [3, 3, 464, 1], "dtype": "float32"}, {"name": "stage4/block1/3x3dwconv/bias", "shape": [464], "dtype": "float32"}, {"name": "stage4/block1/3x3dwconv_2/depthwise_kernel", "shape": [3, 3, 464, 1], "dtype": "float32"}, {"name": "stage4/block1/3x3dwconv_2/bias", "shape": [464], "dtype": "float32"}, {"name": "stage4/block1/bn_3x3dwconv/gamma", "shape": [464], "dtype": "float32"}, {"name": "stage4/block1/bn_3x3dwconv/beta", "shape": [464], "dtype": "float32"}, {"name": "stage4/block1/bn_3x3dwconv_2/gamma", "shape": [464], "dtype": "float32"}, {"name": "stage4/block1/bn_3x3dwconv_2/beta", "shape": [464], "dtype": "float32"}, {"name": "stage4/block1/1x1conv_2/kernel", "shape": [1, 1, 464, 464], "dtype": "float32"}, {"name": "stage4/block1/1x1conv_2/bias", "shape": [464], "dtype": "float32"}, {"name": "stage4/block1/1x1_conv_3/kernel", "shape": [1, 1, 464, 464], "dtype": "float32"}, {"name": "stage4/block1/1x1_conv_3/bias", "shape": [464], "dtype": "float32"}, {"name": "stage4/block1/bn_1x1conv_2/gamma", "shape": [464], "dtype": "float32"}, {"name": "stage4/block1/bn_1x1conv_2/beta", "shape": [464], "dtype": "float32"}, {"name": "stage4/block1/bn_1x1conv_3/gamma", "shape": [464], "dtype": "float32"}, {"name": "stage4/block1/bn_1x1conv_3/beta", "shape": [464], "dtype": "float32"}, {"name": "stage4/block2/1x1conv_1/kernel", "shape": [1, 1, 464, 464], "dtype": "float32"}, {"name": "stage4/block2/1x1conv_1/bias", "shape": [464], "dtype": "float32"}, {"name": "stage4/block2/bn_1x1conv_1/gamma", "shape": [464], "dtype": "float32"}, {"name": "stage4/block2/bn_1x1conv_1/beta", "shape": [464], "dtype": "float32"}, {"name": "stage4/block2/3x3dwconv/depthwise_kernel", "shape": [3, 3, 464, 1], "dtype": "float32"}, {"name": "stage4/block2/3x3dwconv/bias", "shape": [464], "dtype": "float32"}, {"name": "stage4/block2/bn_3x3dwconv/gamma", "shape": [464], "dtype": "float32"}, {"name": "stage4/block2/bn_3x3dwconv/beta", "shape": [464], "dtype": "float32"}, {"name": "stage4/block2/1x1conv_2/kernel", "shape": [1, 1, 464, 464], "dtype": "float32"}, {"name": "stage4/block2/1x1conv_2/bias", "shape": [464], "dtype": "float32"}, {"name": "stage4/block2/bn_1x1conv_2/gamma", "shape": [464], "dtype": "float32"}, {"name": "stage4/block2/bn_1x1conv_2/beta", "shape": [464], "dtype": "float32"}, {"name": "stage4/block3/1x1conv_1/kernel", "shape": [1, 1, 464, 464], "dtype": "float32"}, {"name": "stage4/block3/1x1conv_1/bias", "shape": [464], "dtype": "float32"}, {"name": "stage4/block3/bn_1x1conv_1/gamma", "shape": [464], "dtype": "float32"}, {"name": "stage4/block3/bn_1x1conv_1/beta", "shape": [464], "dtype": "float32"}, {"name": "stage4/block3/3x3dwconv/depthwise_kernel", "shape": [3, 3, 464, 1], "dtype": "float32"}, {"name": "stage4/block3/3x3dwconv/bias", "shape": [464], "dtype": "float32"}, {"name": "stage4/block3/bn_3x3dwconv/gamma", "shape": [464], "dtype": "float32"}, {"name": "stage4/block3/bn_3x3dwconv/beta", "shape": [464], "dtype": "float32"}, {"name": "stage4/block3/1x1conv_2/kernel", "shape": [1, 1, 464, 464], "dtype": "float32"}, {"name": "stage4/block3/1x1conv_2/bias", "shape": [464], "dtype": "float32"}, {"name": "stage4/block3/bn_1x1conv_2/gamma", "shape": [464], "dtype": "float32"}, {"name": "stage4/block3/bn_1x1conv_2/beta", "shape": [464], "dtype": "float32"}, {"name": "stage4/block4/1x1conv_1/kernel", "shape": [1, 1, 464, 464], "dtype": "float32"}, {"name": "stage4/block4/1x1conv_1/bias", "shape": [464], "dtype": "float32"}, {"name": "stage4/block4/bn_1x1conv_1/gamma", "shape": [464], "dtype": "float32"}, {"name": "stage4/block4/bn_1x1conv_1/beta", "shape": [464], "dtype": "float32"}, {"name": "stage4/block4/3x3dwconv/depthwise_kernel", "shape": [3, 3, 464, 1], "dtype": "float32"}, {"name": "stage4/block4/3x3dwconv/bias", "shape": [464], "dtype": "float32"}, {"name": "stage4/block4/bn_3x3dwconv/gamma", "shape": [464], "dtype": "float32"}, {"name": "stage4/block4/bn_3x3dwconv/beta", "shape": [464], "dtype": "float32"}, {"name": "stage4/block4/1x1conv_2/kernel", "shape": [1, 1, 464, 464], "dtype": "float32"}, {"name": "stage4/block4/1x1conv_2/bias", "shape": [464], "dtype": "float32"}, {"name": "stage4/block4/bn_1x1conv_2/gamma", "shape": [464], "dtype": "float32"}, {"name": "stage4/block4/bn_1x1conv_2/beta", "shape": [464], "dtype": "float32"}, {"name": "onv5_out_1x1/kernel", "shape": [1, 1, 928, 1024], "dtype": "float32"}, {"name": "onv5_out_1x1/bias", "shape": [1024], "dtype": "float32"}, {"name": "stage2/block1/bn_1x1conv_1/moving_mean", "shape": [116], "dtype": "float32"}, {"name": "stage2/block1/bn_1x1conv_1/moving_variance", "shape": [116], "dtype": "float32"}, {"name": "stage2/block1/bn_3x3dwconv/moving_mean", "shape": [116], "dtype": "float32"}, {"name": "stage2/block1/bn_3x3dwconv/moving_variance", "shape": [116], "dtype": "float32"}, {"name": "stage2/block1/bn_3x3dwconv_2/moving_mean", "shape": [24], "dtype": "float32"}, {"name": "stage2/block1/bn_3x3dwconv_2/moving_variance", "shape": [24], "dtype": "float32"}, {"name": "stage2/block1/bn_1x1conv_2/moving_mean", "shape": [116], "dtype": "float32"}, {"name": "stage2/block1/bn_1x1conv_2/moving_variance", "shape": [116], "dtype": "float32"}, {"name": "stage2/block1/bn_1x1conv_3/moving_mean", "shape": [116], "dtype": "float32"}, {"name": "stage2/block1/bn_1x1conv_3/moving_variance", "shape": [116], "dtype": "float32"}, {"name": "stage2/block2/bn_1x1conv_1/moving_mean", "shape": [116], "dtype": "float32"}, {"name": "stage2/block2/bn_1x1conv_1/moving_variance", "shape": [116], "dtype": "float32"}, {"name": "stage2/block2/bn_3x3dwconv/moving_mean", "shape": [116], "dtype": "float32"}, {"name": "stage2/block2/bn_3x3dwconv/moving_variance", "shape": [116], "dtype": "float32"}, {"name": "stage2/block2/bn_1x1conv_2/moving_mean", "shape": [116], "dtype": "float32"}, {"name": "stage2/block2/bn_1x1conv_2/moving_variance", "shape": [116], "dtype": "float32"}, {"name": "stage2/block3/bn_1x1conv_1/moving_mean", "shape": [116], "dtype": "float32"}, {"name": "stage2/block3/bn_1x1conv_1/moving_variance", "shape": [116], "dtype": "float32"}, {"name": "stage2/block3/bn_3x3dwconv/moving_mean", "shape": [116], "dtype": "float32"}, {"name": "stage2/block3/bn_3x3dwconv/moving_variance", "shape": [116], "dtype": "float32"}, {"name": "stage2/block3/bn_1x1conv_2/moving_mean", "shape": [116], "dtype": "float32"}, {"name": "stage2/block3/bn_1x1conv_2/moving_variance", "shape": [116], "dtype": "float32"}, {"name": "stage2/block4/bn_1x1conv_1/moving_mean", "shape": [116], "dtype": "float32"}, {"name": "stage2/block4/bn_1x1conv_1/moving_variance", "shape": [116], "dtype": "float32"}, {"name": "stage2/block4/bn_3x3dwconv/moving_mean", "shape": [116], "dtype": "float32"}, {"name": "stage2/block4/bn_3x3dwconv/moving_variance", "shape": [116], "dtype": "float32"}, {"name": "stage2/block4/bn_1x1conv_2/moving_mean", "shape": [116], "dtype": "float32"}, {"name": "stage2/block4/bn_1x1conv_2/moving_variance", "shape": [116], "dtype": "float32"}, {"name": "stage3/block1/bn_1x1conv_1/moving_mean", "shape": [232], "dtype": "float32"}, {"name": "stage3/block1/bn_1x1conv_1/moving_variance", "shape": [232], "dtype": "float32"}, {"name": "stage3/block1/bn_3x3dwconv/moving_mean", "shape": [232], "dtype": "float32"}, {"name": "stage3/block1/bn_3x3dwconv/moving_variance", "shape": [232], "dtype": "float32"}, {"name": "stage3/block1/bn_3x3dwconv_2/moving_mean", "shape": [232], "dtype": "float32"}, {"name": "stage3/block1/bn_3x3dwconv_2/moving_variance", "shape": [232], "dtype": "float32"}, {"name": "stage3/block1/bn_1x1conv_2/moving_mean", "shape": [232], "dtype": "float32"}, {"name": "stage3/block1/bn_1x1conv_2/moving_variance", "shape": [232], "dtype": "float32"}, {"name": "stage3/block1/bn_1x1conv_3/moving_mean", "shape": [232], "dtype": "float32"}, {"name": "stage3/block1/bn_1x1conv_3/moving_variance", "shape": [232], "dtype": "float32"}, {"name": "stage3/block2/bn_1x1conv_1/moving_mean", "shape": [232], "dtype": "float32"}, {"name": "stage3/block2/bn_1x1conv_1/moving_variance", "shape": [232], "dtype": "float32"}, {"name": "stage3/block2/bn_3x3dwconv/moving_mean", "shape": [232], "dtype": "float32"}, {"name": "stage3/block2/bn_3x3dwconv/moving_variance", "shape": [232], "dtype": "float32"}, {"name": "stage3/block2/bn_1x1conv_2/moving_mean", "shape": [232], "dtype": "float32"}, {"name": "stage3/block2/bn_1x1conv_2/moving_variance", "shape": [232], "dtype": "float32"}, {"name": "stage3/block3/bn_1x1conv_1/moving_mean", "shape": [232], "dtype": "float32"}, {"name": "stage3/block3/bn_1x1conv_1/moving_variance", "shape": [232], "dtype": "float32"}, {"name": "stage3/block3/bn_3x3dwconv/moving_mean", "shape": [232], "dtype": "float32"}, {"name": "stage3/block3/bn_3x3dwconv/moving_variance", "shape": [232], "dtype": "float32"}, {"name": "stage3/block3/bn_1x1conv_2/moving_mean", "shape": [232], "dtype": "float32"}, {"name": "stage3/block3/bn_1x1conv_2/moving_variance", "shape": [232], "dtype": "float32"}, {"name": "stage3/block4/bn_1x1conv_1/moving_mean", "shape": [232], "dtype": "float32"}, {"name": "stage3/block4/bn_1x1conv_1/moving_variance", "shape": [232], "dtype": "float32"}, {"name": "stage3/block4/bn_3x3dwconv/moving_mean", "shape": [232], "dtype": "float32"}, {"name": "stage3/block4/bn_3x3dwconv/moving_variance", "shape": [232], "dtype": "float32"}, {"name": "stage3/block4/bn_1x1conv_2/moving_mean", "shape": [232], "dtype": "float32"}, {"name": "stage3/block4/bn_1x1conv_2/moving_variance", "shape": [232], "dtype": "float32"}, {"name": "stage3/block5/bn_1x1conv_1/moving_mean", "shape": [232], "dtype": "float32"}, {"name": "stage3/block5/bn_1x1conv_1/moving_variance", "shape": [232], "dtype": "float32"}, {"name": "stage3/block5/bn_3x3dwconv/moving_mean", "shape": [232], "dtype": "float32"}, {"name": "stage3/block5/bn_3x3dwconv/moving_variance", "shape": [232], "dtype": "float32"}, {"name": "stage3/block5/bn_1x1conv_2/moving_mean", "shape": [232], "dtype": "float32"}, {"name": "stage3/block5/bn_1x1conv_2/moving_variance", "shape": [232], "dtype": "float32"}, {"name": "stage3/block6/bn_1x1conv_1/moving_mean", "shape": [232], "dtype": "float32"}, {"name": "stage3/block6/bn_1x1conv_1/moving_variance", "shape": [232], "dtype": "float32"}, {"name": "stage3/block6/bn_3x3dwconv/moving_mean", "shape": [232], "dtype": "float32"}, {"name": "stage3/block6/bn_3x3dwconv/moving_variance", "shape": [232], "dtype": "float32"}, {"name": "stage3/block6/bn_1x1conv_2/moving_mean", "shape": [232], "dtype": "float32"}, {"name": "stage3/block6/bn_1x1conv_2/moving_variance", "shape": [232], "dtype": "float32"}, {"name": "stage3/block7/bn_1x1conv_1/moving_mean", "shape": [232], "dtype": "float32"}, {"name": "stage3/block7/bn_1x1conv_1/moving_variance", "shape": [232], "dtype": "float32"}, {"name": "stage3/block7/bn_3x3dwconv/moving_mean", "shape": [232], "dtype": "float32"}, {"name": "stage3/block7/bn_3x3dwconv/moving_variance", "shape": [232], "dtype": "float32"}, {"name": "stage3/block7/bn_1x1conv_2/moving_mean", "shape": [232], "dtype": "float32"}, {"name": "stage3/block7/bn_1x1conv_2/moving_variance", "shape": [232], "dtype": "float32"}, {"name": "stage3/block8/bn_1x1conv_1/moving_mean", "shape": [232], "dtype": "float32"}, {"name": "stage3/block8/bn_1x1conv_1/moving_variance", "shape": [232], "dtype": "float32"}, {"name": "stage3/block8/bn_3x3dwconv/moving_mean", "shape": [232], "dtype": "float32"}, {"name": "stage3/block8/bn_3x3dwconv/moving_variance", "shape": [232], "dtype": "float32"}, {"name": "stage3/block8/bn_1x1conv_2/moving_mean", "shape": [232], "dtype": "float32"}, {"name": "stage3/block8/bn_1x1conv_2/moving_variance", "shape": [232], "dtype": "float32"}, {"name": "stage4/block1/bn_1x1conv_1/moving_mean", "shape": [464], "dtype": "float32"}, {"name": "stage4/block1/bn_1x1conv_1/moving_variance", "shape": [464], "dtype": "float32"}, {"name": "stage4/block1/bn_3x3dwconv/moving_mean", "shape": [464], "dtype": "float32"}, {"name": "stage4/block1/bn_3x3dwconv/moving_variance", "shape": [464], "dtype": "float32"}, {"name": "stage4/block1/bn_3x3dwconv_2/moving_mean", "shape": [464], "dtype": "float32"}, {"name": "stage4/block1/bn_3x3dwconv_2/moving_variance", "shape": [464], "dtype": "float32"}, {"name": "stage4/block1/bn_1x1conv_2/moving_mean", "shape": [464], "dtype": "float32"}, {"name": "stage4/block1/bn_1x1conv_2/moving_variance", "shape": [464], "dtype": "float32"}, {"name": "stage4/block1/bn_1x1conv_3/moving_mean", "shape": [464], "dtype": "float32"}, {"name": "stage4/block1/bn_1x1conv_3/moving_variance", "shape": [464], "dtype": "float32"}, {"name": "stage4/block2/bn_1x1conv_1/moving_mean", "shape": [464], "dtype": "float32"}, {"name": "stage4/block2/bn_1x1conv_1/moving_variance", "shape": [464], "dtype": "float32"}, {"name": "stage4/block2/bn_3x3dwconv/moving_mean", "shape": [464], "dtype": "float32"}, {"name": "stage4/block2/bn_3x3dwconv/moving_variance", "shape": [464], "dtype": "float32"}, {"name": "stage4/block2/bn_1x1conv_2/moving_mean", "shape": [464], "dtype": "float32"}, {"name": "stage4/block2/bn_1x1conv_2/moving_variance", "shape": [464], "dtype": "float32"}, {"name": "stage4/block3/bn_1x1conv_1/moving_mean", "shape": [464], "dtype": "float32"}, {"name": "stage4/block3/bn_1x1conv_1/moving_variance", "shape": [464], "dtype": "float32"}, {"name": "stage4/block3/bn_3x3dwconv/moving_mean", "shape": [464], "dtype": "float32"}, {"name": "stage4/block3/bn_3x3dwconv/moving_variance", "shape": [464], "dtype": "float32"}, {"name": "stage4/block3/bn_1x1conv_2/moving_mean", "shape": [464], "dtype": "float32"}, {"name": "stage4/block3/bn_1x1conv_2/moving_variance", "shape": [464], "dtype": "float32"}, {"name": "stage4/block4/bn_1x1conv_1/moving_mean", "shape": [464], "dtype": "float32"}, {"name": "stage4/block4/bn_1x1conv_1/moving_variance", "shape": [464], "dtype": "float32"}, {"name": "stage4/block4/bn_3x3dwconv/moving_mean", "shape": [464], "dtype": "float32"}, {"name": "stage4/block4/bn_3x3dwconv/moving_variance", "shape": [464], "dtype": "float32"}, {"name": "stage4/block4/bn_1x1conv_2/moving_mean", "shape": [464], "dtype": "float32"}, {"name": "stage4/block4/bn_1x1conv_2/moving_variance", "shape": [464], "dtype": "float32"}]}]}